Notebooks/darts_logs/2023-10-19_10_01_37_torch_model_run_12304/checkpoints/last-epoch=41.ckpt (torch, 562496 bytes, 752 tensors)

encoder_vsn.flattened_grn.resample_norm.mask f4 [6]
000000 97 67 4e bf ae 53 10 bc d4 7d 4d 3d bb ec 0d bc
       -0.80626816 -0.008809013 0.050168827 -0.008662398
000010 b4 b4 16 3e a7 43 ef 3e
       0.1471737 0.46731302

encoder_vsn.flattened_grn.resample_norm.norm.weight f4 [6]
000000 76 fc 8e 3e 0f fc 54 3f 94 0a 58 3f d9 b0 5c 3f
       0.27926987 0.8319711 0.8439114 0.8620735
000010 9a da 8c 3f 7e d1 6c 3f
       1.1004212 0.9250716

encoder_vsn.flattened_grn.resample_norm.norm.bias f4 [6]
000000 c5 bd 57 3f b6 54 1d 3e c5 15 34 be cb 18 17 be
       0.8427394 0.15364346 -0.1758643 -0.14755552
000010 4b 06 68 be d4 51 a5 bd
       -0.2265865 -0.08072248

encoder_vsn.flattened_grn.fc1.weight f4 [6, 48]
000000 0b 4a a8 3e 97 23 05 3f 77 67 b3 be 17 90 b2 bb
       0.3286899 0.5200743 -0.35039875 -0.0054493058
000010 25 33 14 3e 8f cb f2 3d ed e1 1c bf 3f f0 92 be
       0.14472635 0.11855232 -0.61282235 -0.28698918
000020 c7 c7 d7 3e 27 32 91 3e 6f d1 49 3e 35 39 84 bd
       0.42144606 0.28358576 0.19708799 -0.06456224
000030 36 c1 85 be bd f9 8a 3d 68 94 21 be 7c dc 06 be
       -0.2612397 0.06785915 -0.15779269 -0.13170046
000040 08 40 93 3e 65 14 a0 bc 43 28 d3 3c 17 52 aa be
       0.2875979 -0.019540975 0.025776034 -0.33265755
000050 26 c8 fc 3c 8f b0 dd 3d c4 b9 f7 be 65 7e 02 bd
       0.030857157 0.108246915 -0.48383915 -0.03185882
000060 09 ea b1 3e 32 d8 5e 3d 20 e2 e9 be e8 74 bc 3e
       0.34748867 0.0544054 -0.45680332 0.36807942
000070 ca 5d 66 be bd db 2a 3d 24 b4 32 be 16 c3 e1 bd
       -0.22496715 0.041713465 -0.1745153 -0.11023538
000080 fb 14 d5 3e 49 e8 f2 3d 2f d9 0b 3f 19 e9 fc be
       0.4161757 0.11860711 0.5462827 -0.4939659
000090 dd 66 ba bc 67 03 0a 3e 54 f1 43 bd 62 7a c7 bd
       -0.022754127 0.1347786 -0.04783757 -0.097401395
0000a0 0a 8e a2 3e 1a 5b 31 be 8d bc 1e be 26 27 c5 3e
       0.31748992 -0.17319909 -0.15501614 0.3850643
0000b0 36 e1 2d 3d 92 ef 05 bf 24 ba bb 3e 17 bb 9d bd
       0.042451106 -0.5231868 0.36665452 -0.077017
0000c0 9b 83 81 3e 89 d6 b1 bd de 22 0d 3e 1c b3 9d 3c
       0.2529572 -0.086834975 0.13782832 0.019250445
0000d0 12 8f a2 be db f1 29 bd 7a 7a 27 bf 2d fa c6 bd
       -0.3174978 -0.041490417 -0.6542126 -0.09715686
0000e0 eb fa 49 be 40 b3 c0 be 91 48 5b be c9 ca 59 3d
       -0.19724624 -0.37636757 -0.214144 0.053171907
0000f0 f2 f4 d5 3b 1a 34 cf be c4 e1 69 bd ac 50 7c 3f
       0.006529444 -0.40469438 -0.057100073 0.98560596
000100 5f 46 b8 be 7b 66 1b 3c ea 8f 03 bf a5 f8 7f 3e
       -0.3599119 0.0094848825 -0.5139147 0.24997194
000110 a8 0a 24 3e 88 fb 27 3e e5 0e 42 3e f8 83 8e 3e
       0.1601969 0.16404545 0.18950994 0.2783506
000120 98 86 c3 bd 85 c4 6e be 2a e3 ae 3d 1d 5a 83 3d
       -0.09547156 -0.23317154 0.08539422 0.06413672
000130 b0 57 a6 3d 0f 71 bd bb cb 7b 11 3e d9 60 a4 be
       0.08122194 -0.0057813 0.1420738 -0.3210514
000140 28 20 e8 3c a9 66 a8 be 45 08 e2 be 3b cf cd 3e
       0.028335646 -0.32890823 -0.44146934 0.40197167
000150 b5 49 46 bd 1b 59 89 3e 1a 86 f7 bc ec 69 14 3e
       -0.048410136 0.26825795 -0.030215312 0.14493531
000160 55 a8 7f 3e 5f 46 93 3c 23 71 ac 3d 51 a7 07 be
       0.24966557 0.017977891 0.084200166 -0.1324742
000170 df de e4 bd e7 1a 5c 3e b2 22 c0 be 24 e7 88 bb
       -0.11175322 0.21494637 -0.3752647 -0.0041779447
000180 e4 c3 6a 3e aa 56 85 3d b0 b4 39 3e b9 9c 9a 3e
       0.22926289 0.065106705 0.18135333 0.30197695
000190 33 0e a4 be 86 08 ed be 38 ff d5 bd 93 4e 7e be
       -0.32042083 -0.46295565 -0.1044907 -0.24834661
0001a0 87 ae 35 bd d5 82 a3 be 8b d2 2b 3f 69 15 4f be
       -0.044355895 -0.31935754 0.6711814 -0.20223011
0001b0 9d 53 97 bd 69 5b 8b 3e c6 fa 0a 3e 16 55 2d 3f
       -0.07388995 0.27218178 0.13572225 0.67707956
0001c0 13 c2 38 3e e7 dc bb bd eb fd ec bd 76 7b 3a 3e
       0.18042783 -0.09172993 -0.115718685 0.18211159
0001d0 18 8c b5 bd 59 57 ea bd 42 f5 44 3e dc fa b4 bd
       -0.088646114 -0.114424415 0.19234183 -0.0883691
0001e0 d2 c2 46 3e 92 c4 3f 3e 4b b8 d4 be 02 43 6e be
       0.19410256 0.1872733 -0.41546854 -0.23267749
0001f0 9b d5 ce 3e 0a b1 b5 3e 1b 89 95 be bb 0a 62 3e
       0.40397343 0.35486633 -0.29206166 0.22074406
000200 c8 95 ba be da 32 02 3e b1 8e a8 bd 16 45 17 3d
       -0.364424 0.12714711 -0.08230341 0.03693112
000210 be 33 c4 3e 53 d5 b6 3e 90 95 a8 3e b8 19 df bc
       0.38320726 0.35709628 0.32926607 -0.027233943
000220 96 af 07 bf 88 bd af be 83 92 30 3c bb bc 85 3c
       -0.530023 -0.34324288 0.010777119 0.016325345
000230 e6 67 17 3e f1 13 f0 3c 2d 41 a6 be cd 87 14 bd
       0.14785728 0.029306384 -0.324716 -0.036262322
000240 ca 11 a7 3e 80 86 5d be c2 f0 1d 3e e3 78 48 3e
       0.3263076 -0.21633339 0.15423873 0.19577365
000250 ea ae a3 be d9 14 60 be 28 57 98 bd d1 81 80 be
       -0.31969386 -0.21882953 -0.07438499 -0.25099042
000260 f5 d7 cd be 6b fc 0d bd 46 fb 9f 3e f2 93 4e 3d
       -0.40203825 -0.034664553 0.31246394 0.05043406
000270 84 a0 be 3e 61 b1 31 3e b4 4e 96 3e d2 d7 26 3f
       0.3723184 0.17352821 0.2935692 0.65173066
000280 f9 58 98 be cd f5 c0 3d 20 69 25 3e b1 f5 8d 3e
       -0.2975538 0.09421883 0.16153383 0.2772651
000290 bc 27 70 3e 1e 97 34 3e 41 97 4e be c3 d0 89 be
       0.23452657 0.17635772 -0.20174886 -0.26917085
0002a0 a0 64 2f 3e fc 11 91 3c 27 45 77 3e 1a cc 5e be
       0.17128229 0.01770877 0.24147473 -0.21757546
0002b0 1c bc 82 bd 63 b2 25 be aa 84 94 be 68 3c 99 3e
       -0.06383535 -0.1618133 -0.29007465 0.299289
0002c0 c6 c7 f1 be d8 2d c9 3e 86 62 a9 be 22 fa 28 be
       -0.47222728 0.39292789 -0.3308298 -0.16501668
0002d0 e1 11 54 3d 44 86 05 be 87 ad 22 3f ad 97 04 be
       0.051774863 -0.130395 0.6354603 -0.12948485
0002e0 96 c6 13 bf 39 d1 a5 3e 64 cf 4d bd 43 18 ed bd
       -0.57724893 0.32386187 -0.05024661 -0.11576893
0002f0 ee 3e cf 3d f4 a7 ea 3d 61 09 eb 3c a4 95 0a be
       0.10119425 0.11457816 0.028690996 -0.13533646
000300 bc 86 5f be fa a0 dc 3e e6 80 0a 3d d2 a3 44 bd
       -0.21828741 0.43091565 0.033814333 -0.048007794
000310 7e b9 c5 be cc 64 32 be a8 cf 32 be 5e 05 9a bd
       -0.38618082 -0.17421263 -0.17462027 -0.07520555
000320 30 4c c6 3e d5 ac a1 3c ad 8c 22 be 7e 76 a5 3d
       0.3873 0.019735733 -0.15873976 0.08079241
000330 d1 c1 65 be 59 df a4 be 1b fb 0b 3e 85 29 b0 be
       -0.22437216 -0.3220165 0.13670008 -0.34406677
000340 18 c2 a7 3d 5b d3 0d 3e 6a bf 97 be 44 ef 38 be
       0.08191317 0.13850157 -0.29638225 -0.18060023
000350 99 aa 1e be f5 b9 f9 3e b9 eb ec 3b 34 0f 7f 3e
       -0.15494765 0.48774686 0.007230249 0.24908143
000360 04 f7 47 3d 2f b2 3b 3e 52 df 9f be f7 fe 11 be
       0.048819557 0.1832969 -0.31225067 -0.14257418
000370 e9 29 16 3e 94 a7 1d 3d f8 58 22 bd db b0 6a bd
       0.14664425 0.038489893 -0.03963563 -0.05729757
000380 84 a7 cf 3d a8 39 03 bc 5a 5b 88 3e b3 5e 2a bd
       0.10139373 -0.008009352 0.26632196 -0.04159422
000390 71 c3 ab 3d 73 83 14 be 8b 30 8a 3d 59 d3 c6 bd
       0.08386887 -0.14503269 0.0674754 -0.0970828
0003a0 88 8e e3 bd 96 44 13 3e c7 b6 13 3e c4 74 4f be
       -0.1111117 0.14381632 0.14425193 -0.20259386
0003b0 00 b9 a4 3e 98 cc 11 be e6 6c 87 3c 6d 16 a1 be
       0.32172394 -0.14238203 0.016531419 -0.31462422
0003c0 e4 d8 7c bc a6 41 eb 3e fb 6a 13 be 78 1a f3 bd
       -0.01543257 0.45948523 -0.14396279 -0.11870283
0003d0 5b c9 c4 3b e2 05 b4 3d b4 06 51 bd 74 cb bf 3e
       0.0060054488 0.087901846 -0.051031783 0.3745991
0003e0 f0 2e c8 3e ad a0 47 be 4b 42 8c be e5 00 2e 3e
       0.3909831 -0.19494887 -0.27394328 0.16992529
0003f0 95 f6 b9 be 9e 0f 06 3d 36 3b 2a 3e e5 0d b6 be
       -0.3632094 0.032729737 0.1662415 -0.35557476

encoder_vsn.flattened_grn.fc1.bias f4 [6]
000000 61 ff 4f be 43 16 87 3d ad 74 8d 3c 76 34 65 3c
       -0.20312263 0.06596043 0.01726755 0.013989558
000010 3a 4f 89 3d 52 66 ed bc
       0.067045644 -0.028979454

encoder_vsn.flattened_grn.context.weight f4 [6, 16]
000000 5b 72 95 be a6 66 9b be 7e 01 d0 bc 2f 1c 01 bf
       -0.2918881 -0.30351752 -0.025391337 -0.5043363
000010 98 b5 45 3d fb 3e d2 3d 1f 0c 0d 3e d6 0b 62 be
       0.048268884 0.10265919 0.13774155 -0.22074828
000020 ce 88 f9 be c1 70 96 3e db 67 68 be 7f 62 bf bd
       -0.48737186 0.293829 -0.22695868 -0.093449585
000030 d3 4d 33 bf 02 ea 43 3e 61 87 40 3e be c7 ef 3e
       -0.70040625 0.19132236 0.18801643 0.4683208
000040 19 49 19 be 98 cb cc be 15 ab 54 be 18 7b cc be
       -0.14969291 -0.3999908 -0.20768388 -0.39937663
000050 74 98 a7 3e 4d 71 16 be ea 06 0e 3b 4e 32 cf be
       0.327335 -0.14691658 0.0021671602 -0.40468067
000060 e4 de 14 3f 20 1a a9 3e a1 bf ed 3c 3c 16 cb be
       0.58152604 0.33027744 0.02902204 -0.396654
000070 35 ff 09 3e df 61 e1 be 34 69 fc 3e 12 7a ed be
       0.1347626 -0.44019982 0.49299014 -0.46382195
000080 9d dc 68 be 15 f5 8a 3e 12 32 66 bd b3 e2 a0 3e
       -0.22740407 0.27140108 -0.056200095 0.31422958
000090 44 66 cb be f2 e1 4a 3e 28 da 79 be 5e 4d 6f 3d
       -0.3972646 0.19812754 -0.24399626 0.058423392
0000a0 29 ef 67 3e 52 79 03 3f 87 af 3c be 92 23 c5 bd
       0.22649826 0.51356995 -0.18426333 -0.09625925
0000b0 f4 3e ba 3c 13 78 c9 be c8 dd 4d bb 32 22 cd 3b
       0.022735097 -0.39349422 -0.003141271 0.00626018
0000c0 4b 03 c1 3e f8 02 62 bd d0 2b 81 bd 76 c6 0a bf
       0.37697825 -0.055178612 -0.06307185 -0.5420908
0000d0 f5 01 5e 3e aa f0 06 be 7c f5 9d 3e 6a ea c9 bc
       0.21680434 -0.13177744 0.30851352 -0.02464791
0000e0 3b 24 91 bd 48 e6 bd be 04 ee 6e 3e 89 f0 94 be
       -0.070869885 -0.37089753 0.23332983 -0.29089764
0000f0 42 9c 85 be 98 30 ee 3e 10 ed db 3d d4 99 74 be
       -0.26095778 0.4652145 0.107385755 -0.23886806
000100 7f 0c 15 3e e4 46 54 be c3 63 25 3e aa 1d 04 3f
       0.14555548 -0.20730168 0.16151337 0.51607764
000110 da 40 95 3e 73 43 a1 3d 25 d6 f2 be 4f 70 34 3e
       0.2915104 0.07874193 -0.47429004 0.17620967
000120 36 ec 43 be b5 a9 78 bd ed 2a bf be b8 de 8e 3d
       -0.19133076 -0.06070872 -0.37337437 0.06976074
000130 66 b8 aa 3e 68 0b 51 3e 24 93 84 be 40 91 88 be
       0.3334381 0.20414507 -0.2589351 -0.26673317
000140 43 3c a5 3d c9 64 0a 3f 36 2f c1 3d e0 4d d6 3e
       0.08068135 0.54060036 0.09432833 0.4185629
000150 9f ea f0 be 58 7d 33 3e e6 f7 f2 3d b6 c4 0a 3f
       -0.47054002 0.17528284 0.11863689 0.5420641
000160 35 6b eb be dc d9 d4 be 8b fd 42 3e 0e 8a c6 3e
       -0.4598023 -0.41572464 0.19042031 0.38777202
000170 2d f2 00 bf 91 76 36 3e 58 32 e7 3c f8 2a 54 3e
       -0.5036953 0.17818667 0.028222248 0.20719516

encoder_vsn.flattened_grn.fc2.weight f4 [6, 6]
000000 1d ac c8 3e 7c 9a 0f 3d 33 9e 8f be e9 be d9 be
       0.39193812 0.035059437 -0.28050384 -0.42528465
000010 8a 65 3e be cf 37 16 3f f9 97 5b 3f a8 90 a8 3e
       -0.18593422 0.5867891 0.85778767 0.32922864
000020 7f 07 51 3f 39 8c 6f 3f 52 31 07 bb 50 60 76 3d
       0.81652063 0.9357334 -0.0020628762 0.060150445
000030 10 ea 89 3d af 89 08 bf f6 4d aa bf cf eb aa bf
       0.06734097 -0.5333509 -1.3305042 -1.3353213
000040 8e f2 86 3d 11 d4 74 be dd 05 4a 3e 91 8a ad 3d
       0.065892324 -0.23909022 0.19728799 0.08473695
000050 c4 c3 2e 3e 93 68 82 3d ac da ed bc ca 8b 87 bf
       0.17066866 0.06367602 -0.029034935 -1.0589535
000060 b5 fd bd 3f 11 d5 78 bf fa 27 73 bf 04 a4 06 3f
       1.484305 -0.97200114 -0.94982874 0.5259402
000070 39 91 51 3f ca 9e dc 3e e5 c5 0d 3f 0b 6d 00 bf
       0.8186222 0.43089896 0.5538009 -0.50166386
000080 6f c6 ee 3e f7 22 f8 3d 0d 38 30 be 4b a9 18 3e
       0.46635768 0.12116044 -0.17208882 0.1490833

encoder_vsn.flattened_grn.fc2.bias f4 [6]
000000 ad bc 4e be 84 c7 da bd 25 bb a2 3c 96 44 08 3e
       -0.20189162 -0.10682586 0.019864628 0.13307413
000010 b3 d6 22 be 01 15 dd bd
       -0.15902214 -0.10795022

encoder_vsn.flattened_grn.gate_norm.glu.fc.weight f4 [12, 6]
000000 64 84 52 be 8c a6 34 3e 12 cf f7 be 60 a6 06 3f
       -0.20558316 0.17641658 -0.4840017 0.5259762
000010 f1 04 1b bf ba 11 19 bf d3 b1 fa bc 13 6f 89 3e
       -0.60554415 -0.59792674 -0.030602371 0.26842555
000020 82 40 e7 3d d7 3a 15 3e a7 f2 18 bf 8d 57 56 3d
       0.11291601 0.14573227 -0.5974526 0.05232959
000030 e1 22 26 3f 5f c4 1c bf f7 6f 94 3e 9c ad e4 be
       0.6489697 -0.6123714 0.28991672 -0.44663703
000040 41 43 d3 be c9 c7 11 3e 4f b5 cb 3e 3f 93 1b be
       -0.41262248 0.14236368 0.39786765 -0.15192889
000050 c8 55 bb 3d e2 24 f8 bd cf 07 70 be 15 e1 14 be
       0.09147221 -0.1211641 -0.23440479 -0.14538987
000060 40 7f 26 3f 6f 75 f3 bd 3b 07 10 3f ce af 32 3e
       0.6503792 -0.11887633 0.5626103 0.17449877
000070 71 20 7b 3c 62 19 20 3d ba 14 76 be 05 ee af 3e
       0.015327559 0.039086707 -0.24031344 0.34361282
000080 f5 5a 82 be f1 fd 7a bc b9 c3 2f 3e 21 db 00 3f
       -0.2546002 -0.015319333 0.17164506 0.50334364
000090 8b 39 5b bf 1d 7d 90 3e c2 69 c1 be ae a0 c3 3e
       -0.8563468 0.28220454 -0.37776 0.38208526
0000a0 84 30 3e bf 9a 30 1d bf 8d 53 97 3e 28 a4 92 be
       -0.7429278 -0.61402285 0.29555932 -0.28640866
0000b0 84 2e ac bd ec cc 43 be f2 8e 2e 3e 18 db fb 3e
       -0.0840731 -0.1912114 0.17046717 0.49190593
0000c0 8d 67 c2 bd ba c9 95 be bd a8 30 3e 16 f7 34 be
       -0.09492407 -0.29255468 0.17251869 -0.17672381
0000d0 8e 38 27 3f 42 5d 4d bd 09 d7 cd 3e 1a 6f c9 be
       0.6532067 -0.050137766 0.4020312 -0.39342576
0000e0 a9 2a a2 be fa 9b bf 3e ab fe 44 be 5c 78 92 3e
       -0.31673172 0.37423688 -0.19237773 0.28607452
0000f0 cc 91 15 3d a1 1d 1b 3e 0c 39 5b 3e 51 4d 9c 3e
       0.036515996 0.15148021 0.2140848 0.30527738
000100 2a 45 11 be 80 30 8b be d9 1e bf 3e 1a b3 e5 be
       -0.1418654 -0.2718544 0.37328222 -0.44863206
000110 bb ac 1f be ff 8a c3 be e7 9a 83 bd fb 3c 39 be
       -0.15593235 -0.38191983 -0.0642603 -0.18089668

encoder_vsn.flattened_grn.gate_norm.glu.fc.bias f4 [12]
000000 ef 1f 40 3f ff 01 7f 3d cc 9f 7c be 60 39 e1 bd
       0.75048727 0.062257763 -0.24670333 -0.109972715
000010 eb c5 8c be f7 ef 22 be 22 be 9c 3f b2 81 3f be
       -0.2749475 -0.15911852 1.2245524 -0.18701819
000020 53 e1 e4 3d bc 4b 16 be 0d 95 83 bd 19 7f 83 bd
       0.1117579 -0.14677328 -0.064249136 -0.06420726

encoder_vsn.flattened_grn.gate_norm.add_norm.norm.weight f4 [6]
000000 9a fb 5f 3f 38 43 f6 3e 0f ee 2e 3f 69 2a 3e 3f
       0.8749329 0.4809816 0.68332 0.7428346
000010 bb 41 52 3f c1 0d 6e 3f
       0.82131547 0.92989737

encoder_vsn.flattened_grn.gate_norm.add_norm.norm.bias f4 [6]
000000 ed e9 d3 3d 17 df 0a 3f 99 a1 97 bd 27 40 3d be
       0.10347352 0.5424666 -0.07403869 -0.18481503
000010 54 0c 64 bd d1 d2 31 bd
       -0.05567582 -0.04341394

encoder_vsn.single_variable_grns.target_0.resample_norm.mask f4 [16]
000000 5c 55 7a bd 05 88 0a bd 6b ca 4c 3d 21 3a b8 3d
       -0.06111656 -0.033821125 0.04999773 0.08995462
000010 11 43 26 be ae fb 05 3e 7e 30 75 3e a3 90 4f be
       -0.16236521 0.1308429 0.2394428 -0.20270018
000020 ee 0f 09 3e 57 63 c2 3d 9f 94 b1 3d ec eb 70 bd
       0.13384983 0.09491604 0.08670925 -0.058818743
000030 ca 5f dd bd ac bf cb 3d dc ab a4 bd ce f0 a7 bd
       -0.10809286 0.09948668 -0.08040592 -0.08200227

encoder_vsn.single_variable_grns.target_0.resample_norm.norm.weight f4 [16]
000000 b7 5c 79 3f 4e 1d 7c 3f a5 4d 83 3f d3 a0 86 3f
       0.97407097 0.98482215 1.025807 1.051783
000010 9f 0d 5c 3f f1 04 91 3f 9f 24 95 3f 8c bf 5d 3f
       0.85958284 1.1329633 1.1651801 0.866204
000020 1a 7d 8e 3f bc 34 87 3f 1e 71 79 3f f7 10 80 3f
       1.1131928 1.0562968 0.9743823 1.0005177
000030 21 e2 82 3f 11 1c b8 3f a8 8d 80 3f 1b 1f 85 3f
       1.0225259 1.4383565 1.004323 1.0400118

encoder_vsn.single_variable_grns.target_0.resample_norm.norm.bias f4 [16]
000000 ae 1a d3 3d 70 a8 d5 3b 01 98 05 3d 5b c2 bc bc
       0.10307823 0.0065203235 0.032615665 -0.023041895
000010 60 90 b7 bd 99 34 c8 3c a1 d1 a6 3c 9d 4d 2a 3e
       -0.08963084 0.024439143 0.02036363 0.1663117
000020 51 62 07 bd 84 82 82 bc 2e 15 28 3d df 31 d0 bd
       -0.033052746 -0.015931375 0.041035824 -0.10165762
000030 73 d9 bd bc c2 f4 4c bc 46 10 76 bd c8 a3 2d bd
       -0.023174977 -0.012509527 -0.060074113 -0.042392522

encoder_vsn.single_variable_grns.target_0.fc1.weight f4 [8, 8]
000000 a4 a8 e1 be f7 03 ae bd e0 a6 be 3e f3 d6 80 3d
       -0.44073975 -0.0849685 0.3723669 0.06290998
000010 28 de 62 be 65 11 38 be bc 81 4e bf c5 46 83 3e
       -0.22155058 -0.17975385 -0.8066671 0.2563993
000020 37 22 5f bc a6 ea af be 57 0d f5 bd 36 db ec be
       -0.013618997 -0.3435871 -0.11965435 -0.46260995
000030 7a 4c 84 bf 6f 51 3e bf d8 4e e7 3e 02 3e 06 bf
       -1.0335839 -0.7434301 0.4517734 -0.52438366
000040 82 12 29 bf 51 02 2d 3d 56 29 c6 be 04 55 47 3e
       -0.66043866 0.042238537 -0.38703412 0.19466025
000050 a3 cd 26 bf aa 1f ac 3e 90 08 58 be 91 6f 1e 3e
       -0.65157527 0.33617908 -0.21097016 0.15472247
000060 c1 74 87 3e 6f 45 85 3d 54 c5 92 be 82 67 7e 3e
       0.26456264 0.06507384 -0.28666174 0.24844173
000070 0a 2a c3 be b4 43 8f be e1 41 88 be 30 f9 06 3f
       -0.3811801 -0.2798134 -0.26612762 0.5272398
000080 ee f2 88 3f f3 4e 26 3d 06 01 ed 3e 3c 27 ac be
       1.0699136 0.040602636 0.46289843 -0.33623683
000090 92 9a 3b 3f 66 55 d9 3e cc 95 e7 3e d6 2a de 3d
       0.7328273 0.42447966 0.45231473 0.10848014
0000a0 5f b1 9e bd f9 74 30 bf cd 7a 18 3f f1 ff 2e 3f
       -0.077486746 -0.68928486 0.5956238 0.68359286
0000b0 0c d0 f1 bd 5a f7 da 3e 2c 7b 46 3e 92 99 a4 bd
       -0.1180726 0.4276684 0.19382924 -0.08037104
0000c0 86 55 7c 3f 91 37 80 3e f5 e2 04 3f fd 8a f3 3e
       0.98568 0.25042394 0.5190881 0.47566977
0000d0 0b d2 cd 3e 6b 3e d0 3f 69 35 09 3e 84 fe fb 3e
       0.40199313 1.6269048 0.1339928 0.49217618
0000e0 a3 4a f8 3e cf ca 5e 3e f0 b9 72 3e e4 f0 62 3e
       0.48494443 0.21757053 0.23703742 0.22162205
0000f0 fa e1 da be 1f f9 45 bf 05 71 ab be 96 49 ed be
       -0.4275053 -0.77333254 -0.33484665 -0.46345204

encoder_vsn.single_variable_grns.target_0.fc1.bias f4 [8]
000000 22 bd 50 be 0e ff 6c 3d 74 b2 77 bd 64 cd 92 3d
       -0.20384648 0.057860427 -0.06047292 0.071680814
000010 58 ef c7 3d 5e 93 30 3e e4 46 9a 3c 59 56 1e bd
       0.09762448 0.17243716 0.018832631 -0.038656566

encoder_vsn.single_variable_grns.target_0.fc2.weight f4 [8, 8]
000000 8f ab cd 3e 03 46 cf 3e 07 20 2b 3f 46 9b 23 bf
       0.4016995 0.40483102 0.66845745 -0.63908803
000010 1c 78 23 3e 73 ae ab be cf 1a 8b be ad eb fa 3e
       0.15963787 -0.33531532 -0.2716889 0.4900793
000020 0d 38 c5 3e 42 65 4c be 58 24 c2 be 25 bc 14 bf
       0.38519326 -0.19960502 -0.37918353 -0.58099586
000030 9d 05 8a be 15 4b f1 3e 50 1e 9e 3e f1 11 02 3f
       -0.26957408 0.47127596 0.30882502 0.50808626
000040 ec 10 3a be ef 9e a8 3d 0d d7 05 bf 04 b0 a3 be
       -0.18170518 0.08233439 -0.52281266 -0.31970227
000050 d6 9c 35 be 9e 97 a2 3e 1d 57 f4 be 9e 8f fc 3d
       -0.1773561 0.317563 -0.47722712 0.1233208
000060 50 a8 b6 bf 30 1f 10 bf d0 60 ff be 7f ca aa be
       -1.4270115 -0.5629759 -0.4987855 -0.33357617
000070 fc 9f 64 3e ed 48 03 bf 4b e2 d3 bc f4 c7 9c be
       0.22326654 -0.5128315 -0.02586474 -0.30621302
000080 4c 16 ab 3e e8 94 0f bf 81 be 1e bf a8 28 2e bf
       0.3341545 -0.5608659 -0.62009436 -0.68030787
000090 aa 4c 32 bf 59 55 a4 3d 45 c1 ef 3e 62 25 83 bf
       -0.6964823 0.08024091 0.4682714 -1.0245783
0000a0 03 f3 90 3e 27 24 14 3f 57 c8 13 bf 0c ce 63 3f
       0.28310403 0.57867664 -0.5772757 0.8898628
0000b0 c4 11 4c be b9 e0 5c be c7 2f 54 3d 4d be 4a 3f
       -0.19928652 -0.215701 0.051803377 0.79196626
0000c0 64 f3 27 be 44 f3 0e 3f d5 84 12 3f 2a b0 c6 3e
       -0.1640144 0.55839944 0.57233936 0.38806278
0000d0 86 2f 49 3e 64 82 2d 3f c2 3d f1 3e 3c 36 ac bf
       0.19647035 0.67777085 0.4711743 -1.3454051
0000e0 c3 85 11 3f db f8 17 bf 71 e8 a9 3d 2c 5c 16 bf
       0.5684473 -0.593641 0.08296288 -0.58734393
0000f0 35 e5 00 be 84 bc 34 3e ff 51 0f 3e 39 77 50 3f
       -0.12587436 0.17650038 0.13996123 0.8143192

encoder_vsn.single_variable_grns.target_0.fc2.bias f4 [8]
000000 b8 72 f2 bc d1 c4 ae 3d f9 81 f4 3d 31 36 4e 3e
       -0.029595718 0.085336335 0.11938853 0.2013786
000010 65 73 06 be 94 31 d3 bb 3e 30 df 3d b6 02 ae bd
       -0.13129957 -0.006445119 0.10897873 -0.08496611

encoder_vsn.single_variable_grns.target_0.gate_norm.glu.fc.weight f4 [32, 8]
000000 8d d7 be 3e 4f 6f e6 3e e5 87 ac 3e 2f 71 c5 be
       0.37273827 0.45006797 0.3369743 -0.38562915
000010 81 c1 a6 be 3c 8e 3b 3e 6f 62 bf be 57 a9 e4 3e
       -0.32569507 0.18315977 -0.37379786 0.44660446
000020 21 ae 40 be df 40 71 3e 59 c5 0c be 9e ad 11 bd
       -0.18816425 0.23559903 -0.13747157 -0.035565965
000030 f1 fb 22 3e d0 8a cf 3c ba 85 df bc 20 5c a8 be
       0.1591642 0.025334746 -0.027285445 -0.32882786
000040 5c 6e e7 bc a8 cc 6b be b3 3c 51 be fb db 17 3e
       -0.028250866 -0.23027289 -0.20433311 0.1483001
000050 f7 83 9e 3e dd c2 8d bb 4e 46 1e be 66 0a 81 3e
       0.30960056 -0.004326208 -0.15456507 0.25203246
000060 c8 9f ff bc 98 e0 c7 be ef b8 54 3d 7e a6 9e 3e
       -0.03120412 -0.3903854 0.05193418 0.30986398
000070 0b b1 91 3e 8b ee b5 bc a4 95 64 3e a9 83 2c be
       0.28455386 -0.022208473 0.22322708 -0.168471
000080 95 5f 9b be 59 58 e1 3c b3 49 2f 3d 83 50 9b be
       -0.3034636 0.027507948 0.042794894 -0.30334863
000090 d3 60 89 3a 15 4b a3 be 3d 6d 14 bd 60 bd 5c 3e
       0.0010481126 -0.3189322 -0.03623699 0.21556616
0000a0 61 6f 64 bb 17 6b b5 3e 98 4a fa 3d 2a 63 15 3e
       -0.0034856426 0.35433266 0.12221259 0.1458861
0000b0 9c ca 65 be 60 24 89 3d d3 f4 0e 3e c5 a5 b0 bd
       -0.2244057 0.06696391 0.1396058 -0.08625368
0000c0 ab ce 9e 3e 37 e4 59 3e f0 27 aa 3e 9a 80 f7 bd
       0.3101705 0.21278463 0.33233595 -0.12085076
0000d0 14 10 a0 be 37 12 45 3e e8 41 b0 bd c1 42 7e 3b
       -0.31262267 0.1924523 -0.086063206 0.0038797113
0000e0 89 8f 0d 3e 55 40 c5 3e 1b c9 32 be af bf 6b be
       0.13824286 0.38525644 -0.17459528 -0.2302234
0000f0 25 dc b8 bc 06 4a 35 3e 74 2b 11 3e f4 1f 63 3d
       -0.02256591 0.17704019 0.14176732 0.055450395
000100 88 b1 f6 3d df a3 c8 be 83 8b 8b 3e 94 9d 6f 3e
       0.1204558 -0.39187524 0.27254876 0.23399955
000110 f9 84 12 be f8 9e bd bd 0a a2 95 3e 70 01 9e 3e
       -0.14308538 -0.092588365 0.29225188 0.30860472
000120 dd 2e 62 3e b2 70 8d 3e eb 84 0d 3e e7 63 0c be
       0.2208819 0.27625042 0.13820235 -0.13709985
000130 c9 5f 86 3e ad 55 a5 3c fc f2 1e be 92 fc da bd
       0.26244953 0.020182455 -0.15522379 -0.10692705
000140 5d 82 4c be 22 42 92 3e 8a f1 71 3e b2 6e 7f bc
       -0.19971605 0.2856608 0.23627296 -0.015590357
000150 fe b4 a0 bc b4 d8 84 bd 7c 8c 71 be 90 4c 50 3e
       -0.019617554 -0.06486645 -0.23588747 0.20341706
000160 0c 18 3c bd fe b7 a1 3e d1 11 ac 3c 68 6d 60 be
       -0.04592137 0.31585687 0.02100459 -0.21916735
000170 6c 64 bc be a7 64 d7 3e 82 08 90 be 07 bf 21 3e
       -0.36795366 0.4206898 -0.2813149 0.15795527
000180 c0 50 75 be 38 64 e5 3d bf 36 39 bd 0c a5 bf 3c
       -0.23956585 0.11200756 -0.045218226 0.02339413
000190 ef 6c 5f 3e e1 2b 2f bd 98 5a ce bd aa 27 5a 3e
       0.21818899 -0.042766456 -0.10075873 0.21304193
0001a0 3e 44 ab be 5f 98 ce bd 89 5b be be 4b 58 0d bc
       -0.33450502 -0.10087656 -0.3717921 -0.008627008
0001b0 c7 5d 72 3e 9d 47 a4 be dd 3b 9d 3e ad 43 2e be
       0.23668586 -0.32085887 0.30709735 -0.17018004
0001c0 87 be 04 be fc 27 ca 3d 44 0b 98 be fd 5e d9 bd
       -0.12963305 0.09870908 -0.29696095 -0.10613821
0001d0 c4 fb 34 3e 04 3f d3 be fa c2 bb 3e cc 2e aa 3d
       0.17674166 -0.41259015 0.36672193 0.08309707
0001e0 5c e4 29 3a 50 01 62 3e 7a 2f 0e be b5 26 74 be
       0.00064808666 0.22070813 -0.13885298 -0.2384289
0001f0 d3 5c 50 3c 84 a1 62 be 99 22 a6 3e f7 b8 02 bd
       0.0127174435 -0.22131926 0.3244827 -0.031914677
000200 44 e7 a7 3e e8 e3 82 3e 9b db e4 bc e8 8d 70 be
       0.3279363 0.25564504 -0.027936747 -0.23491633
000210 20 bc fb be a0 d6 2a 3f 8a 58 d6 be 79 b1 6d be
       -0.49166965 0.6673374 -0.41864425 -0.23212232
000220 e7 b9 e7 3d e1 21 c3 be a5 5c 18 be db b5 26 3d
       0.11314755 -0.38111785 -0.14879091 0.040700775
000230 66 60 9e 3c 2e f7 16 be 76 d7 de 3d e1 3c 3b 3e
       0.019333076 -0.14742729 0.1088094 0.18284942
000240 9c 05 a6 be f5 74 45 bd e5 92 07 be d9 2e e8 3e
       -0.32426155 -0.048207242 -0.1323963 0.45348242
000250 a4 9e 71 be f2 1c 2d be 84 ec 80 3e 7a c0 f3 3c
       -0.23595673 -0.16905573 0.25180447 0.029754866
000260 09 ee cb 3e 13 5e 2d 3f e6 ba b8 3d 8c fc d7 bd
       0.39830044 0.6772167 0.09020023 -0.10546216
000270 15 b4 4e 3e df 85 58 3e d5 76 55 bc 2b 3e cd 3e
       0.20185883 0.21144818 -0.01302882 0.40086493
000280 27 4f bd bd 56 51 1e be c6 05 be 3d d4 8c 9b 3e
       -0.09243613 -0.15460715 0.09278445 0.3038088
000290 48 6a 27 3d dc ac a1 be 26 ac d5 3e f7 90 37 be
       0.040872842 -0.31577194 0.417329 -0.17926393
0002a0 a6 ab 8c 3c fa 25 30 be b6 37 98 be 31 e2 91 3e
       0.017171692 -0.17201987 -0.29730004 0.28492883
0002b0 34 9e 88 be 65 73 31 be 97 2c 3a be 7c 5b aa be
       -0.266832 -0.17329176 -0.18181072 -0.33272922
0002c0 5f 26 1b 3e 64 eb 6a bc 38 4d ad bd c4 83 c5 be
       0.15151356 -0.014338348 -0.08461994 -0.38577092
0002d0 2b da 57 be 78 86 e9 3d 64 eb 8a 3e 2e 3c a0 be
       -0.21079318 0.11402601 0.27132714 -0.31295913
0002e0 d7 27 47 3d 11 08 a5 bc 17 1d 22 be cc f1 7d 3e
       0.04862198 -0.020145448 -0.1583141 0.2479927
0002f0 11 0a 06 3e f6 7f dc 3e 3c 85 6d be bd 15 78 be
       0.13089778 0.43066376 -0.23195356 -0.24227042
000300 63 03 bc be 08 d0 22 be ee 03 df bd 77 a8 5b 3e
       -0.36721334 -0.1589967 -0.108894214 0.21450983
000310 d7 8d c5 be fa 1e ea 3e e2 99 b2 3e 1a 80 ef be
       -0.38584778 0.45726758 0.34883028 -0.4677742
000320 09 5f 80 3e f5 92 83 3d 66 86 37 3e 5a 53 f3 bc
       0.25072506 0.06424514 0.17922363 -0.029702831
000330 39 27 18 be c9 e0 0e 3e f8 98 3d be 8f ec b4 3d
       -0.14858712 0.13952936 -0.18515384 0.088341825
000340 af dc 85 3e d7 d7 49 be 6a 51 e6 3e 8c 4a 83 be
       0.2614493 -0.19711243 0.4498399 -0.25642812
000350 3d 0a 66 be d1 35 79 3e bd ce dc 3e c7 44 04 3b
       -0.22464843 0.24336936 0.4312648 0.0020182596
000360 46 43 bb 3e 69 86 e9 be 08 bf bd 3d cc 6a 96 be
       0.36574763 -0.4561036 0.09264952 -0.29378355
000370 f6 e7 2c 3e f8 8c 71 3e d5 49 f0 bc e8 79 87 be
       0.16885361 0.23588932 -0.02933208 -0.26460195
000380 b5 79 6c bd ed eb 27 be 98 11 f7 3e 5e 6b 5b 3e
       -0.057733256 -0.16398592 0.4825561 0.21427676
000390 5b 47 b5 be aa 6c 1b 3e a3 c7 6c bd f2 bb b1 be
       -0.35406002 0.15178171 -0.057807576 -0.34713703
0003a0 e7 c5 9e 3e 54 06 ee 3b 7a 03 42 3e c5 f9 5a be
       0.31010363 0.007263938 0.18946639 -0.21384342
0003b0 b6 9c c3 be a8 45 ef 3e f8 b6 21 be b8 6a 17 3d
       -0.38205498 0.4673283 -0.15792453 0.03696701
0003c0 2b 48 9d 3e ca 63 b6 3e f5 15 4b bc 04 99 c0 3d
       0.30719122 0.35623008 -0.012395372 0.094041854
0003d0 af 92 0a bf c4 e0 4b 3e da da 32 be aa 92 a1 3d
       -0.5413007 0.1990996 -0.17466298 0.07889302
0003e0 b0 50 64 3d 2a a3 8e be 2c df c3 3e 6d 70 84 be
       0.055741012 -0.2785886 0.38256204 -0.25867024
0003f0 cc 6f 4c be d3 31 a3 3e 8d 21 54 3e c1 c9 3d 3e
       -0.19964522 0.3187395 0.20715924 0.18533994

encoder_vsn.single_variable_grns.target_0.gate_norm.glu.fc.bias f4 [32]
000000 61 4a 22 3e 3e 90 a4 3c e3 79 13 3d 72 d0 10 b8
       0.15848686 0.020088311 0.036004912 -3.4526405e-05
000010 1c 52 d1 bc 1b 87 f3 3c 77 0c bc bc df 2c 2b 3e
       -0.025551848 0.02972751 -0.022955162 0.16716336
000020 0c 65 cd bc 3a 54 aa bc fb 56 0c 3d d3 27 ac bd
       -0.025072597 -0.020792115 0.03426264 -0.08406033
000030 8f e8 11 bd eb 30 33 bd a0 f8 59 bd 94 2b 91 bd
       -0.035622176 -0.043747824 -0.053215623 -0.0708839
000040 b1 d7 d2 3d eb a2 76 be e4 95 33 be b2 c0 34 3d
       0.10295046 -0.24085586 -0.17537647 0.04412908
000050 95 2a 1b be 3e b3 63 be c1 3b 82 3c 46 f8 9f bd
       -0.15152963 -0.22236344 0.015897634 -0.07811026
000060 41 b9 28 be 75 b0 85 bd 6f 5f dd bd 07 d7 24 bd
       -0.16476919 -0.06527797 -0.10809218 -0.04024413
000070 04 2f 46 be 8d 7f 8f 3d a3 81 b9 bd ca 96 a1 be
       -0.19353873 0.0700675 -0.09057929 -0.31560355

encoder_vsn.single_variable_grns.target_0.gate_norm.add_norm.norm.weight f4 [16]
000000 89 28 87 3f 6d ac 80 3f e0 1a 89 3f b6 68 69 3f
       1.0559245 1.005262 1.0711327 0.911754
000010 ad 70 61 3f a6 6f af 3f 27 90 92 3f 78 1f 54 3f
       0.88062555 1.3705947 1.1450242 0.8286052
000020 f0 82 88 3f 79 94 89 3f 19 b2 85 3f c3 50 79 3f
       1.0664959 1.0748435 1.0444976 0.9738886
000030 82 d0 82 3f a3 d5 9d 3f da 49 7e 3f 43 fc 7a 3f
       1.0219882 1.2330822 0.9933144 0.9804117

encoder_vsn.single_variable_grns.target_0.gate_norm.add_norm.norm.bias f4 [16]
000000 66 27 d7 3d 83 33 91 bb 5b 96 76 3d b7 40 87 bd
       0.105055615 -0.0044311895 0.060201984 -0.0660414
000010 2f 55 b4 bd ea 7c 1b 3d 5e 65 b9 3c e8 59 0f 3e
       -0.0880531 0.037960924 0.022631343 0.1399914
000020 3e 34 ac bc 9f a8 9f bb c0 0a aa bb 49 7e 74 bd
       -0.021021005 -0.004872396 -0.00518927 -0.059690747
000030 16 cd e0 bc 7f 3e ff bc f0 13 a7 bd f3 24 bf bd
       -0.027441543 -0.03115773 -0.081581 -0.093332194

encoder_vsn.single_variable_grns.future_covariate_0.resample_norm.mask f4 [16]
000000 1f 2a 67 3e d6 68 86 3d 0b 9e 34 be 18 93 2e be
       0.22574662 0.065629646 -0.17638414 -0.170483
000010 6b 6e a7 bd 4e 3e 8a bc cc 50 b4 3d 64 2d c0 3d
       -0.081753574 -0.016875412 0.08804473 0.093836576
000020 aa 84 68 3e 57 bd 10 3e 9d ad 94 3b 5c 3a 48 3c
       0.22706857 0.14134727 0.004537298 0.012220945
000030 82 bc 40 bd 95 70 58 bd 37 6d 79 3e e7 fd 9d bd
       -0.047054775 -0.05284174 0.24358068 -0.07714444

encoder_vsn.single_variable_grns.future_covariate_0.resample_norm.norm.weight f4 [16]
000000 6d a8 82 3f d6 7b ba 3f 65 f5 4a 3f b5 07 4d 3f
       1.020765 1.4569042 0.7928069 0.80089885
000010 a5 e5 59 3f 6f 50 78 3f 3a f2 a5 3f 05 96 9f 3f
       0.85116035 0.9699773 1.2964547 1.2467657
000020 61 ed 60 3f f1 82 8d 3f 58 0b 37 3f e0 6e dd 3f
       0.8786221 1.1055585 0.71501684 1.7299461
000030 53 86 75 3f 91 32 69 3f 68 8d 8c 3f 78 50 4a 3f
       0.9590809 0.91092783 1.0980654 0.79029036

encoder_vsn.single_variable_grns.future_covariate_0.resample_norm.norm.bias f4 [16]
000000 05 2d c7 bd 16 59 b7 3b 28 76 60 3e 1b a7 45 3e
       -0.09725384 0.0055953367 0.21920073 0.19302027
000010 cc 42 36 3d 7a 79 ec 3c b3 42 79 bd d3 9a 42 bd
       0.044497296 0.028866518 -0.060854625 -0.047510933
000020 19 8e 1d be fc b7 39 3b c9 f2 a7 bd 86 0b 0d 3e
       -0.15386237 0.0028338423 -0.082006045 0.13773927
000030 c3 57 9c 3d 46 38 df 3d 41 cc 51 be 90 35 5c be
       0.07633927 0.10899405 -0.20488073 -0.21504807

encoder_vsn.single_variable_grns.future_covariate_0.fc1.weight f4 [8, 8]
000000 48 d7 c7 be 2b fd d5 3e ac 0a a4 be ec cd 4c 3e
       -0.39031434 0.41794714 -0.32039392 0.20000428
000010 4f e1 98 3d 03 28 af 3d 4f 88 28 3f 25 77 8a 3f
       0.07464849 0.085525535 0.6583299 1.081761
000020 7c 27 de 3e 60 a5 f8 be 16 d4 9a 3e fd d9 2a bf
       0.433895 -0.4856367 0.30239934 -0.66738874
000030 0b 19 43 3f 9b 4a 30 3f 84 9c 9c be c3 8f 87 3f
       0.7621009 0.6886384 -0.30588162 1.0590748
000040 f8 8b bc 3e 25 d5 11 3f 57 0f f7 be b8 98 6c 3f
       0.36825538 0.5696586 -0.4825389 0.9242053
000050 be eb 74 3e 3c 2b 40 3e d1 9c b9 3d 79 84 38 3e
       0.23918054 0.18766493 0.090631135 0.18019284
000060 3e 98 aa 3f ae 41 fc 3e b6 e6 84 3c 5e 44 80 bd
       1.3327711 0.4926886 0.016223293 -0.0626304
000070 f5 b6 b4 be 1e bf 70 3d 7f d1 fc be 29 ff bf bf
       -0.35295835 0.058776014 -0.49378583 -1.4999744
000080 78 7e a3 3e 41 a4 16 bf 45 49 40 bf 4d 32 c9 be
       0.31932425 -0.5884438 -0.751118 -0.3929619
000090 d7 46 88 3f 56 9d 04 3e b5 8b cb be 96 a2 83 3f
       1.0646619 0.12950644 -0.39755026 1.0283992
0000a0 81 d2 46 bf c6 a5 77 3e e6 46 4e 3e d5 a8 5b bf
       -0.77664953 0.24184331 0.20144233 -0.8580449
0000b0 e3 81 34 3f c7 2d e5 3e 8c bb 2b be 6e 05 14 3f
       0.7051069 0.44761488 -0.16770762 0.57820785
0000c0 c8 67 df 3e 14 1d a2 3d b1 fe 1f bf e2 76 d1 3e
       0.43633866 0.079157025 -0.62498003 0.40911013
0000d0 7d c9 3f bf a9 f8 de be db 13 91 be b8 a1 cd bf
       -0.7491682 -0.43549088 -0.2833546 -1.6064978
0000e0 43 b1 7f be 7b 1e 9a 3e ce fb 87 be 06 06 43 3e
       -0.24969964 0.3010138 -0.265593 0.19045267
0000f0 ec 3a b7 bf f5 a5 ab bd 03 11 cc be cd ea 7c bf
       -1.4314857 -0.08381263 -0.3985673 -0.9879578

encoder_vsn.single_variable_grns.future_covariate_0.fc1.bias f4 [8]
000000 a6 5a 38 3e c8 ff 01 3e b7 b3 5d 3e f4 ea 95 3d
       0.1800333 0.12695229 0.21650587 0.073202044
000010 d5 f0 4e bd 6a 8b 34 3e 87 dd 93 bd cd dc 24 bd
       -0.050522644 0.17631307 -0.07219987 -0.040249635

encoder_vsn.single_variable_grns.future_covariate_0.fc2.weight f4 [8, 8]
000000 38 5b f1 bc b0 87 ec 3e cc d9 bf bd e1 29 dc 3e
       -0.029462442 0.4619727 -0.09367713 0.430007
000010 70 a4 86 3c 8a ec 5e 3f 14 2d af 3e 2e b7 e5 3e
       0.016435832 0.8707968 0.3421408 0.44866318
000020 dc ad a4 3e c7 0c d4 3e f2 5d 86 3e 0b 99 23 bf
       0.32163894 0.41415998 0.2624355 -0.639054
000030 ca 9f 07 3f ac 70 75 3f 96 ac 3b bf 3b 22 e0 be
       0.52978194 0.9587505 -0.7331022 -0.43776116
000040 25 bb a8 3e 75 8a cc 3d 66 b3 38 3e 24 8c 09 bf
       0.3295528 0.09987346 0.18037185 -0.5372946
000050 c8 33 6a 3e 4e 50 6c 3f a9 57 41 bf b2 d0 39 be
       0.22871315 0.92310035 -0.75524384 -0.18146017
000060 7e 60 09 3f f1 6f 41 3c 0f bb be be 6a 8a da be
       0.5366286 0.011806474 -0.3725209 -0.42683727
000070 20 00 70 3e 78 f2 bc 3e 81 75 07 3e 53 ab 50 be
       0.23437548 0.3690374 0.13228418 -0.20377855
000080 37 3e 80 be 4d 00 4d 3e 47 a1 21 bf c9 c7 9f bf
       -0.25047466 0.20019646 -0.63136715 -1.2482845
000090 ae ae a0 3c 49 7b b1 3e 8a ab f2 be e3 28 5d be
       0.019614544 0.34664372 -0.473965 -0.21597628
0000a0 a4 a2 1d 3f 0c 1c 64 3e 5d 52 22 3e b5 32 4f 3f
       0.61576295 0.22276324 0.15851732 0.8093675
0000b0 a9 1d d9 be 9a 0f e8 3e 3c 1c cc bd 83 d7 85 3e
       -0.4240544 0.45324403 -0.09966323 0.26140985
0000c0 43 14 b3 be ee 24 12 bf 49 06 12 3d a9 cc 50 3f
       -0.34976396 -0.570876 0.035650525 0.81562287
0000d0 59 f4 a9 be 74 cc 85 bf cc 8f 90 3f c4 06 81 3f
       -0.33194235 -1.0453019 1.1293883 1.008019
0000e0 e8 97 9d be 62 53 1d 3f 14 7b e9 3d 35 cf 70 be
       -0.30779958 0.6145536 0.114004284 -0.23516543
0000f0 f7 7f e5 be 54 3a 26 be 34 59 a5 bc a8 76 63 bf
       -0.44824192 -0.16233188 -0.020184137 -0.8885293

encoder_vsn.single_variable_grns.future_covariate_0.fc2.bias f4 [8]
000000 20 f1 9c 3d 9a 13 7e bd 40 d1 57 3e 77 1c 43 bd
       0.076631784 -0.062030412 0.21075916 -0.047634568
000010 bd 82 c7 bd e8 92 3e bc 6f 08 1c be 9e fc 92 3c
       -0.09741733 -0.011631705 -0.15237592 0.017942723

encoder_vsn.single_variable_grns.future_covariate_0.gate_norm.glu.fc.weight f4 [32, 8]
000000 bd ab e7 be b9 67 cb bd 28 23 3c 3e 7a 00 dc 3d
       -0.45248213 -0.09931893 0.18372786 0.107422784
000010 22 32 86 bd 9e ea 78 3e b7 e8 8a 3e 31 5b d9 bd
       -0.06552531 0.2430825 0.27130672 -0.106130965
000020 01 97 8e 3e b1 0d 97 be b9 e6 ae bb 51 c3 4c 3d
       0.27849582 -0.29502633 -0.005337563 0.049990956
000030 67 31 a4 bd 0d 5e cb 3c b8 c2 0d bd 52 7a 8f be
       -0.08017235 0.02482512 -0.034609526 -0.2802301
000040 20 c3 f1 3e e0 04 3b 3f e9 68 34 bd 28 c0 21 3e
       0.4721918 0.73054314 -0.044045363 0.15795958
000050 fc ce 1d bd 61 e4 03 3e 35 e3 83 be 87 02 66 bd
       -0.038527474 0.12880088 -0.25759283 -0.056154754
000060 e0 92 31 3e c8 a3 d3 3e 17 07 24 3d 3a 50 00 3e
       0.17341185 0.41335893 0.040045824 0.12530604
000070 ea dc 00 3f 6a 54 be be 54 20 e8 bc 96 9f 57 be
       0.5033709 -0.37173778 -0.028335728 -0.21056971
000080 68 30 b8 bd a0 ef a0 be 2a 6b 41 bd ce 08 36 3e
       -0.08993608 -0.3143282 -0.04722134 0.17776796
000090 25 dd 32 be fc 38 e8 bd 10 04 83 3d b0 89 84 3d
       -0.17467172 -0.11338994 0.06397259 0.06471574
0000a0 2e 99 6c 3c 98 d6 b3 3d e9 3c cf bc 9e 46 56 3e
       0.014440818 0.08781165 -0.025297599 0.20925376
0000b0 ce 35 ad 3e 22 49 55 3e 60 c9 5a be 9e 3d a4 3e
       0.33830112 0.20828679 -0.21365881 0.3207826
0000c0 8a 26 13 3e 53 d1 35 be 2d 04 8b be cf 0b aa be
       0.1437017 -0.17755632 -0.27151623 -0.33212134
0000d0 80 f3 9e 3e 85 00 5e 3e e6 33 d0 bc d8 9f 56 be
       0.3104515 0.21679886 -0.025415372 -0.20959413
0000e0 c6 0a 9a 3e 2e 23 93 be 52 b1 6e be f7 ac a9 be
       0.30086344 -0.28737777 -0.2330983 -0.33139774
0000f0 0a d9 4f be 81 9d 23 bd 2b f6 07 3f 2c d0 a2 be
       -0.20297638 -0.03994513 0.5311 -0.31799448
000100 8a f5 83 be 32 e8 12 3e a5 fc b8 bd 23 90 0c 3e
       -0.2577327 0.14346388 -0.09032563 0.13726859
000110 60 d0 a7 3e 0d 66 82 3e 49 06 18 bf 2c 49 a7 3d
       0.32776165 0.25468484 -0.5938459 0.08168253
000120 3d 0d ef bc 01 d2 10 3f 4b 39 0f 3e 07 82 1c be
       -0.029181117 0.5657044 0.139867 -0.15283976
000130 25 91 e1 3e f9 cc 37 3e 06 f2 fd be b5 a8 4b 3e
       0.4405605 0.17949285 -0.49598712 0.19888575
000140 a0 8a 9b bd 0a 29 02 bf cb 29 01 be a2 ce 75 3e
       -0.075948 -0.5084387 -0.12613599 0.24004605
000150 db 25 0a be 86 22 72 3e b2 57 5a 3e f4 45 0e 3e
       -0.13491003 0.23645982 0.21322516 0.13893872
000160 7b ea e7 3d 2d e2 67 3f 5a c0 c7 3e 82 3f 4d 3d
       0.113240205 0.9057949 0.3901394 0.050109394
000170 c0 3a 8f 3e 2b 68 ce bd 50 b3 c2 be fe 46 9a bc
       0.2797451 -0.10078462 -0.3802743 -0.01883268
000180 2c 13 96 3e 98 2a 27 3f 09 72 31 3d be 7f 7a be
       0.29311502 0.6529937 0.043321643 -0.24462792
000190 05 4c 2d 3e a5 29 22 be 14 9d c5 3d 8b ef 9f be
       0.1692353 -0.15836199 0.09649101 -0.31237444
0001a0 af da 5d 3e 5c 53 5e be 6e 08 b3 be a8 4a c7 3e
       0.21665452 -0.21711487 -0.3496737 0.38924146
0001b0 69 fd 52 3e 09 46 b1 bc 95 64 5e 3e 35 79 7b be
       0.20604481 -0.02163984 0.21718056 -0.24557956
0001c0 85 f1 2b be c9 8a da be 25 d6 2f be 1e 98 b3 be
       -0.16791351 -0.4268401 -0.17171533 -0.35076994
0001d0 28 a0 fa be b8 5e 15 3f a9 9c be 3e b2 c6 70 3d
       -0.48950315 0.58347654 0.37228897 0.05878324
0001e0 75 6e cf be ad e3 84 be dd 11 c6 3e 36 c1 de be
       -0.4051396 -0.25954953 0.38685504 -0.43506783
0001f0 e7 59 6b bd 8c 2c 49 3d 1e 1d 76 3d 64 62 35 bc
       -0.057458784 0.04911475 0.060086362 -0.011070821
000200 67 72 aa be f6 d4 b8 3e 0e a2 17 3e 44 ba 2e bc
       -0.33290407 0.36099976 0.14807913 -0.010664526
000210 a5 d7 a6 3e 36 17 b1 3e 43 bd 79 bd 32 bb 52 be
       0.325864 0.3458802 -0.06097151 -0.20579222
000220 4b c8 c0 3d b7 f0 2a bb 50 89 4b be 75 58 6d be
       0.09413203 -0.0026083419 -0.198766 -0.23178275
000230 e2 8a 9e be 8c 1b bc 3d 2f 6e a0 bd 62 e7 b5 be
       -0.30965334 0.09184942 -0.07833516 -0.35528094
000240 c5 fe aa bd e2 52 c6 3e 6e 7a 96 3e 8c a7 93 3e
       -0.08349375 0.3873511 0.2939028 0.28838766
000250 6f 02 99 3e b2 e3 ac be 6f f1 cd be 4d a1 7e 3e
       0.2988467 -0.33767468 -0.40223262 0.24866219
000260 ac 56 c1 3e 31 75 6b be dc 6b 05 bf 36 6e c5 3d
       0.37761438 -0.22993924 -0.52117705 0.09640162
000270 90 24 cd 3e 56 04 90 bd 47 9d ac bb a5 73 e1 bd
       0.40066957 -0.07032077 -0.0052677724 -0.110083856
000280 46 f8 64 be 51 bf f4 3e 1c 90 82 3e 3d 6d da bd
       -0.22360334 0.47802213 0.25500572 -0.10665367
000290 5c bf a5 be 14 83 10 3d 7f 43 e9 be 61 f0 28 3f
       -0.32372558 0.035281256 -0.45559308 0.6599179
0002a0 37 02 85 be be f6 2d 3f 28 08 84 3e 87 ef 0b 3e
       -0.25978252 0.67954624 0.25787473 0.13665591
0002b0 fd 4c c2 be 09 51 a9 3e 6e eb 10 bf 18 c4 0a 3f
       -0.37949362 0.33069637 -0.5660924 0.54205465
0002c0 18 cf 9f bb bb a6 9a 3d 42 27 8b be fb af c7 be
       -0.0048769824 0.075513326 -0.2717839 -0.3900145
0002d0 39 6e ce be 62 60 8b be 60 ed 93 bd 00 27 cb 3e
       -0.40318468 -0.27221972 -0.0722301 0.39678192
0002e0 0c 70 82 3d 1b 14 56 be 7b 46 53 be 6f 03 d8 3e
       0.063690275 -0.20906107 -0.20632355 0.4219012
0002f0 f8 f2 54 3e 0f 5d 0b be 50 6f 8c be 10 ca 06 be
       0.2079581 -0.13609718 -0.27428675 -0.13163018
000300 43 8d 54 be e3 21 c3 3e 03 7b 0a 3e 21 af c4 3e
       -0.20757012 0.3811179 0.13523488 0.38414863
000310 95 ed ab 3e a2 c3 78 3d 5b de 22 bd 56 65 4d 3e
       0.33579698 0.060733445 -0.039762836 0.20058188
000320 71 58 44 be 45 64 a4 bc 31 73 30 be a8 8c be 3e
       -0.19174363 -0.020067343 -0.17231442 0.37216687
000330 32 62 d4 3e c4 61 4d bd c3 32 e3 3c 29 89 87 3e
       0.41481167 -0.050142065 0.027734166 0.26471832
000340 c9 dd 81 3e ac 76 14 3f 27 6e c1 bd 64 bc 30 be
       0.2536452 0.5799358 -0.09444838 -0.17259365
000350 c6 37 ea 3e 09 0e 06 3e dd 4c fb bd 38 51 a2 3e
       0.45745677 0.13091291 -0.1227052 0.3170259
000360 4f 09 18 3f 1f 8d a7 be 7b be 8f be b5 1f ed 3c
       0.59389204 -0.32724854 -0.28075013 0.028945783
000370 a6 e5 d3 ba eb 91 bb be 77 9c 00 3f 85 e3 ab be
       -0.0016166463 -0.36634764 0.50238746 -0.3357202
000380 cd 97 4b 3e 81 0f 22 3f 44 3a 9e 3e 55 54 fd bd
       0.19882126 0.6330491 0.30903828 -0.12369601
000390 31 11 d9 3d fa 8b aa bc ea e6 84 be 53 4d a2 3e
       0.10598982 -0.0208187 -0.25957423 0.3169962
0003a0 23 dc c6 3e 3c aa 49 3e df 38 7a be da e0 62 be
       0.38839826 0.19693846 -0.24435757 -0.22156087
0003b0 67 86 34 3d 3d d2 9c 3e ee 87 bb bd 93 77 21 be
       0.04407349 0.3062915 -0.09156786 -0.1576827
0003c0 83 63 28 3d da 54 ff be 89 47 26 bf b7 3e 9f be
       0.041110527 -0.49869424 -0.64952904 -0.31102535
0003d0 58 98 63 bd 32 a6 3c 3e 55 ef 11 3f bd 2e b2 be
       -0.05556521 0.18422773 0.57005817 -0.34801283
0003e0 e2 8d f5 bd a0 70 77 3e 59 7c 49 3e 1f bb 83 3e
       -0.119899526 0.24164057 0.19676341 0.257287
0003f0 4a bc bb bd dc 65 61 3e cc dc 8d bb de d6 60 3e
       -0.09166773 0.22011513 -0.0043292996 0.21956965

encoder_vsn.single_variable_grns.future_covariate_0.gate_norm.glu.fc.bias f4 [32]
000000 00 e7 f0 bd 02 1e 9a 3c 46 87 67 3e 32 53 37 3e
       -0.1176281 0.018813137 0.22610196 0.1790283
000010 d2 53 87 3d 6e 56 1d bd 10 d7 79 bd 27 61 e5 bc
       0.06607784 -0.038412504 -0.060996115 -0.028000427
000020 4a a3 08 be f8 2a f6 3c ac 11 e8 bd 16 c4 94 3d
       -0.1334354 0.030049786 -0.11331496 0.07263963
000030 8f 48 a0 3d 60 b6 cd 3d 5b 64 75 be 4f cc 39 be
       0.078263395 0.10044551 -0.23964064 -0.18144344
000040 79 de be bb d4 b5 c4 bc 24 ce 7a 3d 37 23 2f 3e
       -0.0058248607 -0.024012484 0.061231747 0.17103277
000050 78 81 50 be 82 0d a2 be 00 44 ef bd cb 1d 64 3e
       -0.20361888 -0.3165093 -0.11682892 0.2227699
000060 59 7f 1f 3e a5 79 36 3e 33 78 73 3d e8 d5 00 3f
       0.15575923 0.17819841 0.059440803 0.50326395
000070 38 66 2a bd cc ac 3d 3d 61 8e 5e bc 7d 82 2b 3d
       -0.04160139 0.04630737 -0.01358375 0.04187249

encoder_vsn.single_variable_grns.future_covariate_0.gate_norm.add_norm.norm.weight f4 [16]
000000 0f 29 9c 3f 71 df b0 3f 38 99 68 3f dc 29 68 3f
       1.220003 1.3818189 0.90858793 0.9068887
000010 2f c9 6b 3f df f2 77 3f c5 93 90 3f e6 82 b5 3f
       0.92103857 0.96854967 1.1295096 1.4180572
000020 a8 a5 86 3f 20 6b a2 3f f7 21 22 3f 3e be e8 3f
       1.0519304 1.2688942 0.63333076 1.8183057
000030 70 dd 8f 3f 82 1a 82 3f 48 a5 9a 3f d8 2e 79 3f
       1.1239452 1.016434 1.208169 0.973371

encoder_vsn.single_variable_grns.future_covariate_0.gate_norm.add_norm.norm.bias f4 [16]
000000 cc 7e 83 3d 3b e7 4f bd 89 2c d1 3d a1 a3 47 bc
       0.06420669 -0.050757628 0.102135725 -0.012185008
000010 3f 96 ae bd bc f0 61 3d 5c e3 06 3c 42 b1 ee 3d
       -0.08524751 0.055161223 0.008232918 0.11654903
000020 62 2c 83 3c e6 04 8c 3c 16 75 c1 bc 33 c3 c2 38
       0.016012374 0.01709218 -0.023615401 9.2869996e-05
000030 5c 24 31 bd 72 e1 a5 bc 68 b2 c8 bd d1 51 50 bd
       -0.043247566 -0.020249102 -0.09799653 -0.050859276

encoder_vsn.single_variable_grns.future_covariate_1.resample_norm.mask f4 [16]
000000 b4 73 93 3c 3d fe 90 3d b9 57 10 be 04 05 57 3d
       0.017999507 0.07079742 -0.14095964 0.052495018
000010 59 3b 9f 3d 92 c7 12 3e ce 6c 8f 3c a7 ca 6c 3e
       0.077749915 0.14333943 0.017507937 0.2312418
000020 37 a3 0f 3c 01 81 26 bd 80 59 20 bd 0d 2b 50 3f
       0.008766941 -0.04065037 -0.039147854 0.8131569
000030 a7 6e d8 bd 48 36 8a 3d 0a 65 62 be 0b 2f e9 bd
       -0.1056798 0.067486346 -0.22108856 -0.11385926

encoder_vsn.single_variable_grns.future_covariate_1.resample_norm.norm.weight f4 [16]
000000 07 96 79 3f 2b 90 85 3f 3a 93 59 3f 9d ed 80 3f
       0.9749455 1.0434622 0.84990275 1.0072514
000010 81 fd 85 3f fd 50 86 3f 62 07 7f 3f 19 ce 91 3f
       1.0467988 1.0493466 0.9962064 1.1391021
000020 f6 5e 7a 3f 14 10 74 3f cd 8e 6c 3f 2c fa c2 3f
       0.9780115 0.95337033 0.92405397 1.5232596
000030 3a 77 61 3f e9 f9 84 3f 65 6d 52 3f a9 46 61 3f
       0.8807255 1.0388767 0.8219817 0.87998444

encoder_vsn.single_variable_grns.future_covariate_1.resample_norm.norm.bias f4 [16]
000000 c8 81 4e 3c 47 a6 4c bd 08 12 1c 3e 0d bb 56 3b
       0.012604184 -0.049963262 0.15241253 0.00327653
000010 86 ed 49 bd 04 50 30 3d 0f 15 eb bc 37 94 cc 3d
       -0.049298786 0.04304506 -0.028696565 0.09989207
000020 0a 19 f8 bb b0 53 53 3d 5b 9e 93 bc 73 a8 86 3c
       -0.0075713443 0.051593482 -0.018019846 0.016437745
000030 78 7b ef bd 96 77 27 3d 8a b2 41 be c2 96 c9 bd
       -0.11693472 0.04088553 -0.18915763 -0.09843208

encoder_vsn.single_variable_grns.future_covariate_1.fc1.weight f4 [8, 8]
000000 3e a9 2f 3f 1d 29 4b be e8 28 3a bf 29 d4 7e 3f
       0.6861762 -0.19839902 -0.7271867 0.9954248
000010 da 36 4f be 2e 22 ad bf 1f d7 f4 be 64 29 27 3e
       -0.20235768 -1.3526056 -0.47820374 0.16324383
000020 5f fa 82 3e 5d 0b ac 3e 20 14 9c be 4b df 6e be
       0.25581643 0.3360242 -0.30484104 -0.23327367
000030 e1 98 48 bf d7 68 68 3f a7 d1 e2 3e 78 e3 58 3e
       -0.78358275 0.9078497 0.44300577 0.21180522
000040 59 0c 61 3f 36 89 57 bf be 2e 61 3e d8 54 9e 3d
       0.87909466 -0.8419374 0.21990487 0.077310264
000050 23 65 fe 3d 04 30 06 3e cb 89 f7 3e 07 05 f3 be
       0.12421634 0.13104254 0.48347315 -0.47464773
000060 65 b1 b3 bc 3e de b9 3e 36 a6 d9 3d f5 75 41 3f
       -0.021935174 0.3630237 0.10627405 0.75570613
000070 94 a4 29 bf 68 85 23 bf 3e 85 18 3e 6c 54 76 be
       -0.6626675 -0.63875437 0.14894578 -0.24055642
000080 b8 f3 74 be b3 64 de be fb 37 b9 3e 62 ad a5 3e
       -0.23921096 -0.43436202 0.36175522 0.32358843
000090 eb 53 16 3e 0e dd a7 3f e1 01 39 3f 11 ba 89 be
       0.1468045 1.3114336 0.7226849 -0.2689977
0000a0 86 ba 83 be 03 ca 37 bf 89 4d 27 bd 22 43 55 3e
       -0.25728244 -0.7179262 -0.040845428 0.2082639
0000b0 00 78 e3 3e fe fa 87 be eb ba 98 3e ea 33 37 bf
       0.4442749 -0.2655868 0.29830107 -0.7156359
0000c0 2e 2c 8f be 2d d3 5b 3e 53 df cb be 8c f5 89 3e
       -0.27963394 0.21467276 -0.3981882 0.2694515
0000d0 83 3c 18 bf 80 75 83 3f 0f 5f a3 3e 77 8c 0c bf
       -0.59467334 1.0270233 0.3190846 -0.5490183
0000e0 22 f8 f1 be 99 9a 35 bd 50 dc 1f bf 3c 0d a6 be
       -0.47259623 -0.04433689 -0.62445545 -0.32431972
0000f0 4e 51 e0 bc 94 e1 60 3d 2e 88 ec bd 2c 9d d9 3e
       -0.02738252 0.054902628 -0.11549412 0.42502725

encoder_vsn.single_variable_grns.future_covariate_1.fc1.bias f4 [8]
000000 b9 45 95 3c d1 94 17 bd 30 ec 25 bd 45 91 81 bd
       0.018221723 -0.037007157 -0.04050845 -0.06326536
000010 02 01 73 bc bb 76 37 bd 48 17 fa bc 3a 38 0b 3d
       -0.014831783 -0.044790965 -0.03052868 0.03398917

encoder_vsn.single_variable_grns.future_covariate_1.fc2.weight f4 [8, 8]
000000 d3 18 66 bf 53 95 0a 3f 2f f8 a2 3e 77 ee e1 bd
       -0.8988163 0.541341 0.31829974 -0.11031812
000010 23 ae 63 3f c8 8f 9b be 24 a6 6e 3d 61 3c 40 3f
       0.88937587 -0.30383134 0.058263913 0.7509213
000020 ee ec 99 3d 27 3b 33 bf 9d 5a 2b be 18 82 56 be
       0.07515894 -0.70012134 -0.16733785 -0.20948064
000030 44 33 67 3e ce df 1c bf 90 94 db be 1f fa 12 be
       0.2257815 -0.61279 -0.42886782 -0.14353226
000040 af d3 12 3f 8e 8b 0a bf 18 fd 24 3d 7a b6 de be
       0.57354254 -0.54119194 0.04028043 -0.43498594
000050 b3 a6 7e bf 4d 9a 6a be 04 1d c2 be 5b 34 e9 3e
       -0.9947311 -0.22910424 -0.37912762 0.45547757
000060 60 90 41 3f d3 5d a0 3e a1 3b 1e 3f c0 4a 52 3f
       0.75610924 0.31321582 0.61809736 0.8214531
000070 e1 0c f0 3e e6 19 b4 be 42 ef bb 3e 8c d4 e5 3c
       0.46884826 -0.3517601 0.36705977 0.028055452
000080 c0 ae 57 3f f9 8d 48 bf c8 6f 4e 3e a4 c7 62 3f
       0.8425102 -0.78341633 0.20159829 0.8858588
000090 ca d0 aa bf af 6a 4e bf ed 95 c9 be aa ae 50 bd
       -1.3344967 -0.80631536 -0.39372197 -0.050947823
0000a0 9e 42 af 3e e4 08 9d 3f 9c 45 a6 3e 67 01 41 be
       0.34230512 1.2268338 0.32474983 -0.18848191
0000b0 bd 14 c1 3d 61 34 3a 3f 89 51 95 3f ac e7 01 bf
       0.09427784 0.72736174 1.1665508 -0.5074413
0000c0 3e eb c5 be 26 81 a8 bd 37 0e f8 be cf d1 75 be
       -0.38656038 -0.08227758 -0.48448345 -0.24005817
0000d0 95 7d 0d 3f 1a b9 8d be e5 11 03 3f 8d 50 14 3e
       0.5526975 -0.27680284 0.5119918 0.14483853
0000e0 e8 71 95 3e b9 2d 6e bf 6f dc ac 3d 36 11 94 3e
       0.29188466 -0.9303852 0.08440482 0.2891938
0000f0 53 ae 72 bf e7 4b 3e bf 5b 34 1f 3e f2 96 cc 3e
       -0.9479725 -0.7433457 0.15547316 0.39958912

encoder_vsn.single_variable_grns.future_covariate_1.fc2.bias f4 [8]
000000 35 c0 0a bd 16 fc 66 bc 70 a8 b7 3d 4b f6 83 ba
       -0.03387471 -0.014098188 0.08967674 -0.0010067908
000010 5e 65 96 bd c7 18 cf bc 89 66 22 3c 1c 5b fe bb
       -0.07343553 -0.02528037 0.009912142 -0.007762326
