Notebooks/Models/others/lstm_model.pt.ckpt (torch, 19016 bytes, 5 tensors)

rnn.weight_ih_l0 f4 [100, 6]
-0.9221184 -0.19310911 0.24340306 0.4121786 -0.72073597 0.61541975 2.5759172 -1.7250252
-1.1706583 -0.03948736 0.0051741013 -0.40899763 2.1120355 0.9617548 -0.99427027 -0.26447254
0.20102017 -0.26716837 1.3224936 -0.34757167 -0.09359046 -0.06893897 -0.18706012 0.037656765
4.103295 -0.42784053 -0.20533742 -0.6953576 -0.14568841 -0.6005297 0.6849992 -2.640281
-0.43208358 -0.061732907 -0.19716296 0.06884005 -0.10221276 -0.6999269 0.85652834 0.12217322
0.13151012 0.106344074 1.1937608 -0.6948719 -0.6107855 -0.5830844 -0.019739658 -0.3244038
1.9407634 0.6134683 0.37081873 0.0774638 -0.42641604 0.06300392 -0.3380888 8.313646
-0.6984021 -0.24737392 -0.5959911 -0.23689136 0.47833112 -3.1985867 0.967503 -0.21599083
1.585428 0.1432934 -4.42163 -0.024831532 -0.11834063 0.36661938 -0.058165807 0.49486062
-1.6395591 1.7097778 -0.35380447 0.24828953 -1.0764368 0.0532827 -0.0027297859 -0.2707569
-0.517089 0.22562143 0.4461105 0.6304672 -2.6370525 -0.67139584 -0.24689263 0.37324148
0.757402 0.752822 -0.52541184 1.3790249 0.14542888 0.5003049 -0.0024115953 0.42363977
-0.16252716 0.6174549 0.5107631 0.4798921 0.17242779 0.3185641 -1.0695953 0.760206
-0.66203165 0.37188125 -0.19769526 0.24404357 6.9723315 1.0388874 -0.9108542 -0.4425213
-1.1846061 -0.5366267 9.938456 -1.8346982 -1.1816428 -1.5683486 -0.06148727 -1.6012925
-0.22574246 -2.3589196 -0.56262946 -0.69187176 -1.4112138 -0.94261354 1.5721039 0.8148037
-0.711454 -0.14916512 -0.117706634 0.057197336 4.857944 -0.25848076 0.5046009 -0.070467755
-0.2396465 -0.10919354 1.5303532 0.45815757 -0.011400599 0.7709377 0.6953191 -0.42681518
-0.7577191 -5.0049176 1.8600217 -0.028846564 -0.0807252 -0.26681143 -1.2041051 1.7149068
0.77327627 -0.4641305 0.23612615 -0.5582937 -0.21249463 -1.8183467 -0.74496454 0.08400805
-0.52187556 -0.22227176 -0.89677346 -0.6709428 1.1487796 0.19091451 0.7419011 0.19020703
0.3636269 0.05359897 0.19782524 0.3196916 -0.20850018 0.13866395 1.050971 -1.7703476
-0.45625564 -0.5070529 -0.9785577 -0.77961355 -0.6112108 -2.3231719 0.11607707 0.04424207
0.3809922 0.07974299 0.77647805 0.063750386 -1.0041957 0.1701038 -0.60246927 0.23537499
0.33953968 -0.5328773 1.0102913 -0.23651351 -0.05934396 -0.19118874 -0.23362938 -0.15592408
-0.15693097 -0.33877164 -0.22788595 -0.045490775 -0.5755372 2.7711961 0.03701217 0.19179292
0.2957704 -0.07975718 -1.3415174 0.90497327 -1.7744378 -0.31400296 0.26061037 0.062455155
2.3327777 1.1147112 0.044121336 0.21649705 -0.5430396 0.067028195 -0.38132185 0.12504788
-0.5762769 0.49149343 -0.0042012124 0.41657022 -1.8616275 0.5084546 -0.15893482 0.33452725
-0.34512913 0.48034033 0.6348312 -0.53693604 0.23871188 0.17091927 -0.15838228 0.0625087
0.9433733 2.1322935 -0.23465009 0.1354187 -0.05802943 0.2751969 1.3545156 0.54915017
-0.077625364 0.047767434 -0.7887637 -0.32407436 0.02657792 -2.939799 0.69266015 0.0029956107
00000000: f40f 6cbf 65be 45be a73e 793e 1309 d33e
00000010: 2782 38bf 268c 1d3f d4db 2440 a0cd dcbf
00000020: 22d8 95bf 7fbd 21bd 828b a93b 2368 d1be
00000030: 972b 0740 9035 763f 7f88 7ebf f268 87be
00000040: 3bd8 4d3e 4bca 88be 7847 a93f eaf4 b1be
00000050: 5bac bfbd e02f 8dbd b08c 3fbe fb3d 1a3d
00000060: 314e 8340 ea0d dbbe f943 52be f502 32bf
00000070: 582f 15be 50bc 19bf 1c5c 2f3f 5dfa 28c0
00000080: 0f3a ddbe a5db 7cbd 16e5 49be 03fc 8c3d
00000090: ec54 d1bd 692e 33bf 7145 5b3f f435 fa3d
000000a0: 97aa 063e ecca d93d 27cd 983f 20e3 31bf
000000b0: 705c 1cbf 0545 15bf 10b5 a1bc 4118 a6be
000000c0: ef6a f83f 420c 1d3f f4db bd3e 57a5 9e3d
000000d0: 3453 dabe 3308 813d fa19 adbe b204 0541
000000e0: 7bca 32bf 974f 7dbe df92 18bf a693 72be
000000f0: d1e7 f43e a5b5 4cc0 47ae 773f b32c 5dbe
00000100: 4eef ca3f 81bb 123e fe7d 8dc0 7f6b cbbc
00000110: 925c f2bd 89b5 bb3e 453f 6ebd 5f5e fd3e
00000120: 13dd d1bf 00da da3f dc25 b5be 9c3f 7e3e
00000130: aec8 89bf f63e 5a3d 35e6 32bb a6a0 8abe
00000140: f25f 04bf 4e09 673e 9868 e43e 4c66 213f
00000150: 78c5 28c0 99e0 2bbf 6cd1 7cbe 8219 bf3e
00000160: 19e5 413f f1b8 403f 6481 06bf e383 b03f
00000170: 4feb 143e fb13 003f db0b 1ebb 50e7 d83e
00000180: 856d 26be 8611 1e3f 5fc1 023f 6bb4 f53e
00000190: e990 303e d51a a33e 80e8 88bf dc9c 423f
000001a0: e87a 29bf 3867 be3e a070 4abe 8fe6 793e
000001b0: 571d df40 43fa 843f be2d 69bf 2792 e2be
000001c0: 2ca1 97bf 5e60 09bf ea03 1f41 64d7 eabf
000001d0: 1240 97bf a6bf c8bf 13da 7bbd 27f7 ccbf
000001e0: 0829 67be 8af8 16c0 7c08 10bf 821e 31bf
000001f0: a7a2 b4bf 1f4f 71bf b33a c93f fa96 503f
00000200: d921 36bf bebe 18be 2d10 f1bd c147 6a3d
00000210: 4774 9b40 9757 84be 862d 013f 6651 90bd
00000220: e465 75be dda0 dfbd 9de2 c33f a193 ea3e
00000230: 94c9 3abc 2c5c 453f 6f00 323f 8587 dabe
00000240: e1f9 41bf 4928 a0c0 3115 ee3f a14f ecbc
00000250: 4153 a5bd 829b 88be 1e20 9abf 1182 db3f
00000260: 6ff5 453f 83a2 edbe 0ecb 713e 56ec 0ebf
00000270: 3198 59be 96bf e8bf ffb5 3ebf 6a0c ac3d
00000280: a399 05bf 359b 63be f292 65bf e8c2 2bbf
00000290: 360b 933f 187f 433e 3bed 3d3f a2c5 423e
000002a0: 4e2d ba3e 988a 5b3d b392 4a3e 9eae a33e
000002b0: 1281 55be ecfd 0d3e 3886 863f c09a e2bf
000002c0: 579a e9be 38ce 01bf c282 7abf c194 47bf
000002d0: 5078 1cbf d9ae 14c0 d1b9 ed3d 2c37 353d
000002e0: 6911 c33e 4b50 a33d 44c7 463f 908f 823d
000002f0: 7c89 80bf b12f 2e3e 6d3b 1abf 2406 713e
00000300: 25d8 ad3e a66a 08bf 3a51 813f 9930 72be
00000310: a712 73bd fbc6 43be 8a3c 6fbe 90aa 1fbe
00000320: 83b2 20be 7a73 adbe ef5a 69be 8954 3abd
00000330: 6856 13bf 475b 3140 139a 173d 5d65 443e
00000340: 386f 973e bb57 a3bd d8b6 abbf 54ac 673f
00000350: c720 e3bf ffc4 a0be b96e 853e fad0 7f3d
00000360: 3b4c 1540 dbae 8e3f 93b8 343d 67b1 5d3e
00000370: a504 0bbf 1446 893d 9e3c c3be 8d0c 003e
00000380: e286 13bf 07a5 fb3e 53aa 89bb b148 d53e
00000390: cf49 eebf 152a 023f cfbf 22be 2847 ab3e
000003a0: c4b4 b0be 2bef f53e 4c84 223f a474 09bf
000003b0: e370 743e 7605 2f3e f72e 22be 9004 803d
000003c0: ea80 713f 7f77 0840 1d48 70be 33ab 0a3e
000003d0: 45b0 6dbd 9ce6 8c3e c460 ad3f 1b95 0c3f
000003e0: 0cfa 9ebd c9a7 433d 6bec 49bf 13ed a5be
000003f0: f0b9 d93c ab25 3cc0 2d52 313f 0252 443b

rnn.weight_hh_l0 f4 [100, 25]
-0.53388613 -1.754631 -3.0064564 0.8761515 -8.852915 0.7290262 1.6275308 0.29421097
-3.342536 1.0527775 2.031535 -1.6484337 2.6347618 -0.46559805 0.40753138 0.9632696
0.03652232 0.20321561 -3.481126 -2.0340464 1.4377835 -0.9417641 3.589785 0.70628613
-2.769035 0.45264205 -0.46715197 -1.6842349 0.214927 -1.2106744 -1.4582572 -0.11736397
0.08689318 0.51847476 0.16896081 0.47835875 0.5918585 -3.2722573 0.9131482 0.39330402
0.039606057 0.9879649 -0.40904543 1.7757837 -1.0590901 -1.2834779 -0.13502103 0.46993658
-0.30866644 -0.09049118 -0.13922328 -0.065265164 -1.2523739 1.2104821 3.1755114 -0.49075526
0.13609755 -0.80935115 -0.9302157 -0.696099 1.6756423 0.4320102 4.6065373 0.87738943
0.7629147 -0.98053485 -2.7042592 -0.29446664 0.39021942 -3.0324998 4.1584167 -1.4408092
-0.30097634 -0.25204027 -1.1875343 0.45595008 0.14117593 -0.03252125 0.8471309 1.595558
0.24074131 -0.74173504 0.16632502 -0.043239627 -0.3039015 0.24273856 -0.3130922 -1.3700564
0.49784374 0.39937615 0.1226985 -0.14386564 -0.071543686 1.1160603 -0.47939125 0.055840556
-0.6403245 -0.7145212 0.34582812 0.09847474 -0.94725865 0.5046191 -0.49032867 -0.55521816
0.015287327 -0.6140686 1.8676754 1.8876238 0.119615205 -0.62666005 0.24802224 2.861582
-1.606626 -2.093917 0.58857846 0.56821376 1.7556791 1.3535182 0.4477807 -2.5843074
-1.9312464 0.22677954 1.5841012 0.8171439 1.6036277 0.99302375 -1.6750023 0.66519755
0.7462845 1.2852021 -0.06914852 0.18776304 0.40576312 0.89304835 0.37656334 -1.4726179
-2.4392612 0.0643975 0.8623897 1.7708048 0.2525248 -1.5786374 -0.9782575 0.24771117
-0.2581737 0.6266493 -0.7581651 -0.5982162 0.33930895 -0.10640793 -0.55585194 -0.5672656
0.63873154 -1.2750211 -0.6472331 0.94423544 1.2745442 -0.09000177 0.50158435 -0.24646974
0.13165991 0.26569295 0.86551386 2.1147962 -1.063834 0.29986852 -0.3542301 0.45497864
-1.2130302 2.6571834 -0.58953494 1.0088382 -2.6094382 -0.54706705 -2.635345 -1.340952
0.05662948 -1.0212634 -0.23481308 -3.3507884 -0.13291325 -0.32719627 -3.2217884 -0.7460111
-0.8491888 -1.4978814 1.131019 2.651902 -3.5529044 -1.1626143 -1.6935506 3.40098
-0.2565101 -1.7630235 0.5291981 1.2949673 0.54007626 2.758821 0.8480566 -2.4276774
0.88020456 -1.5882324 1.6256992 -0.9840635 4.3074226 -1.0508564 0.29179525 0.5145954
0.83347327 0.9042725 1.8727822 -1.4740927 1.1712337 1.6409637 -1.5121078 0.1371879
0.027459156 -0.07310273 0.56597114 -1.9788383 1.7252976 -0.21137428 -2.477946 1.5576866
-4.315855 0.24354765 4.3660016 -0.064462245 0.66874796 -9.335031 0.80712926 -0.8511716
-1.8681713 3.755599 -2.4756832 2.4203014 0.5806227 0.19880031 -1.307549 -2.8586519
4.187736 1.2270241 -3.5979311 -1.4785229 -2.9034643 -0.60574555 -2.3941765 5.846853
0.40519464 1.3231487 -1.1122186 -2.3441935 -0.5842184 2.920466 0.66293585 3.833363
00000000: c3ac 08bf c097 e0bf c869 40c0 774b 603f
00000010: 8aa5 0dc1 76a1 3a3f ee52 d03f d2a2 963e
00000020: 1cec 55c0 6ac1 863f ab04 0240 e0ff d2bf
00000030: f09f 2840 de62 eebe f4a7 d03e d698 763f
00000040: 6e98 153d c117 503e c5ca 5ec0 d12d 02c0
00000050: 4a09 b83f 7417 71bf 0abf 6540 2bcf 343f
00000060: df37 31c0 b3c0 e73e 8b2e efbe 0295 d7bf
00000070: d315 5c3e 61f7 9abf 2ca8 babf 855c f0bd
00000080: 0df5 b13d c3ba 043f 1004 2d3e 70eb f43e
00000090: 0a84 173f aa6c 51c0 15c4 693f 255f c93e
000000a0: f639 223d 45eb 7c3f 676e d1be e14c e33f
000000b0: 4490 87bf 0149 a4bf f442 0abe 879b f03e
000000c0: 8709 9ebe 7153 b9bd 8c90 0ebe bea9 85bd
000000d0: ca4d a0bf 14f1 9a3f 943b 4b40 4644 fbbe
000000e0: 285d 0b3e a331 4fbf 9e22 6ebf 8b33 32bf
000000f0: 727b d63f 7130 dd3e c168 9340 989c 603f
00000100: 614e 433f 5504 7bbf 9512 2dc0 55c4 96be
00000110: d7ca c73e 7a14 42c0 c011 8540 706c b8bf
00000120: 9219 9abe 6c0b 81be 2001 98bf 4a72 e93e
00000130: 6c90 103e 0135 05bd 92dd 583f 3f3b cc3f
00000140: e484 763e 59e2 3dbf 1b51 2a3e 091c 31bd
00000150: fa98 9bbe 7590 783e 9f4d a0be 025e afbf
00000160: 60e5 fe3e 087b cc3e 5a49 fb3d 8451 13be
00000170: 7f85 92bd 10db 8e3f c572 f5be 11b9 643d
00000180: 4eec 23bf ddea 36bf 6210 b13e 20ad c93d
00000190: 8b7f 72bf b82e 013f 5c0c fbbe c722 0ebf
000001a0: b277 7a3c 9a33 1dbf fd0f ef3f a89d f13f
000001b0: d1f8 f43d cb6c 20bf 8bf9 7d3e 2924 3740
000001c0: eca5 cdbf bc02 06c0 14ad 163f 7576 113f
000001d0: 18ba e03f 1640 ad3f 8343 e53e 4b65 25c0
000001e0: 1533 f7bf e538 683e d4c3 ca3f 5830 513f
000001f0: ac43 cd3f ce36 7e3f 7a66 d6bf 634a 2a3f
00000200: 800c 3f3f 8181 a43f bd9d 8dbd f444 403e
00000210: 2fc0 cf3e d19e 643f e9cc c03e be7e bcbf
00000220: db1c 1cc0 d6e2 833d 92c5 5c3f bba9 e23f
00000230: ee4a 813e ca10 cabf 156f 7abf ffa7 7d3e
00000240: 582f 84be 176c 203f 1c17 42bf b224 19bf
00000250: e7b9 ad3e 67ec d9bd 504c 0ebf 5238 11bf
00000260: e983 233f e433 a3bf 12b1 25bf 6ab9 713f
00000270: 4424 a33f d952 b8bd d567 003f 9062 7cbe
00000280: dbd1 063e e808 883e 5192 5d3f d258 0740
00000290: b62b 88bf 5e88 993e a65d b5be f6f2 e83e
000002a0: 9344 9bbf 4b0f 2a40 c3eb 16bf 9c21 813f
000002b0: 0901 27c0 960c 0cbf 7ea9 28c0 51a4 abbf
000002c0: 50f4 673d c2b8 82bf d772 70be 5173 56c0
000002d0: 691a 08be 4586 a7be c831 4ec0 95fa 3ebf
000002e0: 7064 59bf 94ba bfbf 3bc5 903f c3b8 2940
000002f0: c962 63c0 8cd0 94bf 44c6 d8bf a8a9 5940
00000300: 4b55 83be c1aa e1bf 8779 073f 7dc1 a53f
00000310: 7042 0a3f 8690 3040 3d1a 593f 115f 1bc0
00000320: 1655 613f 334b cbbf e916 d03f 96eb 7bbf
00000330: 68d6 8940 7682 86bf 3066 953e 86bc 033f
00000340: 815e 553f 677e 673f 54b7 ef3f 12af bcbf
00000350: fcea 953f 190b d23f c08c c1bf fc7a 0c3e
00000360: 06f2 e03c e2b6 95bd 7ce3 103f 934a fdbf
00000370: 8dd6 dc3f 8072 58be ab96 1ec0 4662 c73f
00000380: 7c1b 8ac0 8e64 793e 49b6 8b40 c804 84bd
00000390: 1133 2b3f 495c 15c1 06a0 4e3f 62e6 59bf
000003a0: 3d20 efbf bc5b 7040 9871 1ec0 38e6 1a40
000003b0: b0a3 143f 4f92 4b3e c45d a7bf 27f4 36c0
000003c0: ef01 8640 200f 9d3f 8144 66c0 3d40 bdbf
000003d0: 5cd2 39c0 2412 1bbf 303a 19c0 6b19 bb40
000003e0: ac75 cf3e f05c a93f 2e5d 8ebf 4407 16c0
000003f0: 568f 15bf eae8 3a40 2ab6 293f d255 7540

rnn.bias_ih_l0 f4 [100]
0.5771146 -0.1439854 0.3377593 -0.011899852 -1.3658552 0.6084588 -0.12445854 0.68407416
0.28205425 -0.49371934 0.05307125 0.04373606 0.059301827 0.19861567 -0.5447933 -0.32865003
0.11347995 0.86691403 -0.5855866 -0.3615145 0.1349323 -0.5165057 -1.2993826 0.79387456
-0.54209566 0.25187498 1.1659834 -0.44900388 0.18347715 -0.4319576 0.95560014 0.074114434
-0.56671196 -0.43664458 -0.5056032 -0.09794576 0.768495 0.20792033 -0.12838522 -0.5433589
-0.040189493 -0.10420937 0.6231615 0.28231266 0.15957467 -0.55403376 0.082516685 -0.23480465
-1.1663673 -1.274017 -0.24720308 0.38131708 0.16387096 -0.47573477 -0.69008803 0.10525806
0.41313404 -0.16221502 0.20553248 0.2840058 1.2137812 0.8739937 -0.33753324 -0.13052142
-0.097232096 0.0693012 0.62310165 0.5254807 -0.13566084 -0.4138643 0.17619462 0.14513688
-0.16240042 -0.49701348 -0.41788095 0.6471066 0.4657878 0.5162993 0.038832374 1.8668386
1.6980432 0.51794374 0.978244 -0.38781062 0.33626157 0.095702425 1.2805072 0.08812946
0.55093145 0.059647813 -0.035396036 -0.18502322 0.9312829 0.3193266 0.9833162 0.6016224
0.67866504 -0.6224725 1.3413457 1.4071326
00000000: c8bd 133f e970 13be c9ee ac3e 99f7 42bc
00000010: 58d4 aebf f5c3 1b3f 1ee4 febd 7c1f 2f3f
00000020: 6a69 903e c8c8 fcbe 3d61 593d 9524 333d
00000030: 79e6 723d e861 4b3e 9377 0bbf d144 a8be
00000040: 2d68 e83d 14ee 5d3f 01e9 15bf 6e18 b9be
00000050: b12b 0a3e b839 04bf 2b52 a6bf 5d3b 4b3f
00000060: c8c6 0abf c2f5 803e f23e 953f d6e3 e5be
00000070: 6fe1 3b3e 8c29 ddbe 36a2 743f 4fc9 973d
00000080: 0914 11bf e18f dfbe 366f 01bf c997 c8bd
00000090: 17bc 443f 11e9 543e 6a77 03be 9219 0bbf
000000a0: bd9d 24bd b96b d5bd 8387 1f3f 498b 903e
000000b0: 8b67 233e 28d5 0dbf 82fe a83d a170 70be
000000c0: 864b 95bf fd12 a3bf ce22 7dbe fe3b c33e
000000d0: cacd 273e 8293 f3be 9ca9 30bf 8a91 d73d
000000e0: 4e86 d33e b21b 26be 1b77 523e 3569 913e
000000f0: 2f5d 9b3f 0dbe 5f3f 28d1 acbe 68a7 05be
00000100: 9f21 c7bd caed 8d3d 9783 1f3f e785 063f
00000110: adea 0abe 06e6 d3be 5d6c 343e c39e 143e
00000120: 4c4c 26be 8d78 febe 7ef4 d5be c7a8 253f
00000130: bd7b ee3e 312c 043f b20e 1f3d 91f4 ee3f
00000140: 7b59 d93f f697 043f 336e 7a3f 1d8f c6be
00000150: 7a2a ac3e a2ff c33d a9e7 a33f 387d b43d
00000160: d809 0d3f 4451 743d 6ffb 10bd ba76 3dbe
00000170: 8e68 6e3f c77e a33e 9cba 7b3f ed03 1a3f
00000180: febc 2d3f 5c5a 1fbf 37b1 ab3f ec1c b43f

rnn.bias_hh_l0 f4 [100]
0.5655864 -0.31531554 0.20254211 -0.28719005 -1.2401388 0.69121695 -0.16881998 1.0081388
0.18178543 -0.31992808 0.096080706 -0.21665883 0.1526502 0.17947489 -0.65780956 -0.55097246
-0.033110812 0.9013037 -0.5876997 -0.44894704 0.13939948 -0.28237474 -1.3551185 0.9459655
-0.42118767 0.21665938 1.2478708 -0.24262525 0.1311167 -0.7522899 0.69848233 0.19574456
-0.49863237 -0.3840485 -0.51883805 -0.12532878 0.792401 0.13182372 -0.085167214 -0.68349934
0.25596324 0.035491202 0.606121 0.057249855 -0.1951951 -0.41527763 0.2732593 -0.1673125
-0.92415696 -0.98702264 -0.12389593 0.3176761 0.20002581 -0.5796842 -0.7708719 0.057398025
0.2158388 -0.30306736 0.2538403 0.47758448 0.9090565 0.79558176 0.007315969 -0.48765808
-0.11783712 -0.056151126 0.48453173 0.6161577 -0.21639289 -0.3078661 0.07932823 0.28893656
0.15079251 -0.47035384 -0.2723971 0.5831926 0.6056101 0.6954524 0.025605176 1.748426
1.6979401 0.51652294 1.0138905 -0.21480393 0.3938406 -0.27314994 1.3534609 -0.011391527
0.938412 -0.0046917563 -0.19397272 0.060795207 0.7616933 0.54315877 0.9356788 0.48227188
0.60887486 -0.83151996 1.1089562 1.469841
00000000: 45ca 103f 0a71 a1be 3367 4f3e 930a 93be
00000010: debc 9ebf 98f3 303f 25df 2cbe b10a 813f
00000020: f625 3a3e 9dcd a3be f6c5 c43d d0db 5dbe
00000030: 5650 1c3e 44c8 373e 3566 28bf 880c 0dbf
00000040: 349f 07bd d7bb 663f 7d73 16bf 63dc e5be
00000050: bdbe 0e3e 6c93 90be 8674 adbf cc2a 723f
00000060: e9a5 d7be f5db 5d3e 3bba 9f3f c172 78be
00000070: 7543 063e 1296 40bf bdcf 323f 4371 483e
00000080: be4c ffbe 01a2 c4be 92d2 04bf 3056 00be
00000090: cbda 4a3f ccfc 063e 266c aebd d0f9 2ebf
000000a0: 9d0d 833e 395f 113d bf2a 1b3f d37e 6a3d
000000b0: 39e1 47be 459f d4be a5e8 8b3e f853 2bbe
000000c0: 8d95 6cbf 84ad 7cbf 26bd fdbd 71a6 a23e
000000d0: 91d3 4c3e 2f66 14bf dc57 45bf 311a 6b3d
000000e0: d904 5d3e a52b 9bbe 5bf7 813e f485 f43e
000000f0: edb7 683f 3fab 4b3f ccba ef3b 52ae f9be
00000100: 9754 f1bd b9fe 65bd 8b14 f83e 83bc 1d3f
00000110: 1996 5dbe a0a0 9dbe d776 a23d 7eef 933e
00000120: 5a69 1a3e 38d2 f0be a277 8bbe 1c4c 153f
00000130: 4309 1b3f 2b09 323f f2c1 d13c 6ccc df3f
00000140: 1a56 d93f d93a 043f 2ac7 813f 90f5 5bbe
00000150: 7aa5 c93e 4fda 8bbe 353e ad3f 87a3 3abc
00000160: c53b 703f 4ebd 99bb c9a0 46be 6504 793d
00000170: 55fe 423f 740c 0b3f a588 6f3f 57ec f63e
00000180: 39df 1b3f 7ede 54bf 47f2 8d3f c023 bc3f

V.weight f4 [1, 25]
0.043347597 0.22119129 -0.0428062 -0.23975039 0.28400454 0.05874971 0.22729437 0.12376235
-0.0851098 -0.06448905 -0.05209775 -0.23370646 0.1278187 -0.0587377 0.120061226 0.21457654
0.005838542 -0.03889526 0.26938316 -0.17878205 -0.014914589 0.16117346 0.4846543 -0.008064172
0.010450198
00000000: 408d 313d f87f 623e 8e55 2fbd 2081 75be
00000010: 0b69 913e 89a3 703d dbbf 683e 1d77 fd3d
00000020: 0c4e aebd d612 84bd 7364 55bd bf50 6fbe
00000030: e8e2 023e f196 70bd a9e2 f53d f4b9 5b3e
00000040: 3d51 bf3b a350 1fbd 97ec 893e a412 37be
00000050: 525c 74bc a80a 253e 9c24 f83e 971f 04bc
00000060: 4f37 2b3c
