Notebooks/darts_logs/2023-10-19_10_32_25_torch_model_run_20100/checkpoints/last-epoch=29.ckpt (torch, 562496 bytes, 752 tensors)

encoder_vsn.flattened_grn.resample_norm.mask f4 [6]
00000000: 90c0 60bf 0cba 4b3d 8cf7 ad3d 190a 13be
00000010: 8ea1 423e e333 ca3e
-0.8779383 0.049737975 0.084944814 -0.1435932 0.1900694 0.3949271

encoder_vsn.flattened_grn.resample_norm.norm.weight f4 [6]
00000000: 1295 9b3e cda7 663f ca1d 543f 1bfd 113f
00000010: 145a 8d3f 0b12 7e3f
0.3038717 0.90099794 0.82857955 0.57026833 1.1043115 0.9924628

encoder_vsn.flattened_grn.resample_norm.norm.bias f4 [6]
00000000: ad92 533f 7ffd 0c3e 9bcc 36be 7bf2 e1be
00000010: b5f2 9cbe 6aaf 03bd
0.82645684 0.13768576 -0.17851488 -0.4413031 -0.3065392 -0.03214971

encoder_vsn.flattened_grn.fc1.weight f4 [6, 48]
00000000: f28f 953e b4d5 113f 7268 a9be 3da6 3dbd
00000010: fa24 843e 9212 453e 938e 13bf a4de 76be
00000020: c4b1 403f 743a 883e cb5a b5bd 586c edbc
00000030: 4fab 1cbf ca3a 4abe c03e 98be b419 34bf
00000040: 0caf 6f3e 51f1 86bd d195 52bd 1db1 99be
00000050: 395c 6dbc e1d2 e93d ff1b dabe be01 753b
00000060: 2cdc 9c3e d853 633d 39c3 d8be 0161 ad3e
00000070: 350e 39be 42d1 13bb a867 0cbe 897d 8ebd
00000080: aea3 0e3f 0968 66bd 7ee4 ea3e 16bc 83be
00000090: 8d5a b9bc 7240 0d3e 9b25 b2be 9a94 cfbd
000000a0: e874 c13e fca4 88bd 113d 5dbd d2e5 9e3d
000000b0: f436 76bd b4f2 efbe 3425 bc3e f261 88bd
000000c0: 60ad a63e e2e1 32bd 0b89 223e dd10 1c3e
000000d0: 978e 0bbf ebce 05be 6de4 5abf cfcc 64be
000000e0: 7872 c3be 5187 acbe 65a8 703a 20c4 563d
000000f0: 4b4a 773e f775 53be 032d 833d 9cf7 b03f
00000100: df99 bbbe eab2 aa3c 5e69 17bf f09d 443e
00000110: 81d6 223e 5861 9f3e a486 603e b56f 543e
00000120: 4f5b 30bd e92d 33be 91b5 023d 97c9 fa3d
00000130: 1e6b ea3c e2b3 423d f92e b73d 41af bfbe
00000140: 21ed f83d abca 98be 50c3 c7be c1af 1c3e
00000150: 0cf1 fcbd 7550 ad3e 10b9 03bd 47cc a23d
00000160: 463c a23e d868 57bd 6fac b43c 0506 2f3d
00000170: 5709 1bbd 6f71 233e 633e a7be 3923 223d
00000180: 05a9 853e 268f 1b3d ff1a 163e 8a56 b13e
00000190: e444 56be ba95 aabe 5d60 55be 7e2e 97be
000001a0: 12a0 6ebe 11e1 9abe 6a8a 6a3f 6fae 6cbe
000001b0: e167 713e 528c fe3e 1acd 7d3e f994 943f
000001c0: 1faa 433e ee53 a5bd 680d 2cbe 31bb 1d3e
000001d0: ad50 a7bd 89f6 173d c067 443e 1cdf fdbd
000001e0: b84b 663e 9814 653e a8d9 e4be e2bd 4bbe
000001f0: 2a74 bf3e f426 c53e f170 a5be 2d42 433e
00000200: c552 1bbe 1662 523d f97d 91bd af9c 18bd
00000210: 3f4f a13e bb3c dd3e 493c a13d 49f4 b8bd
00000220: 129c e5be 0797 babe a5d3 97bb fa48 6a3c
00000230: 832a 343e 1d4f 85bb 0a3d 8fbe 345e 8a3c
00000240: 9f43 973e 9a5e 2ebf d64a 0cbe 4385 dc3c
00000250: 161c 303e a1b2 da3e 7c8d 503e dc45 e4bd
00000260: dc1a 94be ecfb e5bb e52a 9c3e 913a ae3d
00000270: e349 a03e 47eb 293e dd89 9d3e d05d f93e
00000280: 48cb 8abe b42a eb3d 4c2f 363e 40e4 833e
00000290: 4148 803e d7d7 283e cb86 66be 698d 92be
000002a0: 5cdb 4b3e c95c 643d fc7a 5d3e 3847 4fbe
000002b0: c008 c1bd 753b 0abe 916d 9fbe a413 8c3e
000002c0: 5846 a4be 330c dc3e 5aa5 92be 2799 e8be
000002d0: 37bd 1a3b 458c a3bd c9d2 f73e 29cd 26be
000002e0: 6810 0cbf d3bf 7f3e 980f ddbd fff1 1f3e
000002f0: e952 4b3e 274b 903d 7d4e 2e3d fe00 ebbd
00000300: 8a90 7dbe 17ef 603e b40d fbbd 28f0 51be
00000310: 6c05 003e d5be c73e 5a50 fa3d 909d 7f3d
00000320: 1956 343f 28b6 483d dbad e2be f766 273e
00000330: f178 1dbf 0b95 14bf 2594 1d3d 339f 96bf
00000340: 1d1f 453e f435 5b3e b618 d3bc 101a 2abe
00000350: 5629 84bd 4671 9bbd 2b90 0cbe 2116 8c3e
00000360: e23e 6a3d 93a4 3c3e 2f4b a3be 8e5b 14be
00000370: ac4a 093e 41b8 393d 064d 33bd b35d 83bd
00000380: 22c8 923e c44a 2abe 5162 713e 75c4 e03d
00000390: e828 db3c 7e44 9ebd f670 68be d410 19be
000003a0: cd37 75bd 591c 2b3e c3f5 2d3e aa98 afbe
000003b0: b1cc 9d3e a6ee 12be 9078 5d3d 09f8 88be
000003c0: 5137 9dbd a4bb 053f 984c 96bd 0496 4ebe
000003d0: a98f 453d e46d 09bd 807e b43d 5f31 e93e
000003e0: b620 013f b59b 77be a413 edbe b64e 1a3e
000003f0: 599f 15bf 43ed 10be d60f 683d c546 76bf
0.29211384 0.5696671 -0.33087498 -0.046301115 0.2580946 0.19245365 -0.57639426 -0.24108368
0.7527125 0.26607096 -0.08855208 -0.028982326 -0.61198896 -0.19748989 -0.29735374 -0.7035172
0.23406619 -0.06588996 -0.051412407 -0.3001794 -0.01448732 0.11417175 -0.42599484 0.0037385072
0.30636728 0.05549988 -0.42336443 0.3386307 -0.18071826 -0.0022555147 -0.13711417 -0.06957538
0.55718505 -0.05625156 0.4587745 -0.25729436 -0.022626186 0.13794115 -0.34794316 -0.101357654
0.37784505 -0.06672093 -0.054013316 0.077586785 -0.060111 -0.46864855 0.36747134 -0.066593066
0.3255415 -0.04367245 0.1587259 0.15240808 -0.5451445 -0.13067214 -0.855048 -0.22343753
-0.3817327 -0.33696988 0.0009180366 0.052433133 0.24149434 -0.20650469 0.0640507 1.3825564
-0.36640832 0.020837266 -0.5914515 0.19200873 0.15902139 0.31128955 0.21926361 0.20745738
-0.04305583 -0.17497982 0.031911436 0.122454815 0.02861553 0.04753483 0.08944506 -0.37438396
0.12154604 -0.29842123 -0.390162 0.1530142 -0.123506635 0.33850446 -0.03215891 0.07949119
0.3168661 -0.05259022 0.022054879 0.04273035 -0.037850704 0.1596124 -0.32664785 0.039584372
0.26105514 0.037978314 0.14658736 0.34636337 -0.20924717 -0.33317357 -0.20837541 -0.29527658
-0.2330325 -0.30249837 0.91617453 -0.23113416 0.23574783 0.4971643 0.24785271 1.1607963
0.19107865 -0.08072649 -0.16801989 0.15403439 -0.081696846 0.03710035 0.19180202 -0.1239607
0.22489822 0.22371137 -0.4469731 -0.19896653 0.37393314 0.3850628 -0.3231273 0.19068213
-0.15168293 0.051363073 -0.071041055 -0.0372588 0.31505772 0.43210396 0.078728266 -0.09030969
-0.44845635 -0.3644335 -0.0046333843 0.0142996255 0.17594342 -0.004068269 -0.27976257 0.016890623
0.29543778 -0.681131 -0.13700423 0.026919013 0.17198214 0.42714408 0.20366472 -0.11146137
-0.28926742 -0.007018557 0.30501476 0.085072644 0.3130637 0.16593657 0.30769244 0.48704386
-0.27108216 0.11482754 0.1779148 0.25760078 0.25055125 0.16488586 -0.22512357 -0.28623512
0.19907898 0.05575255 0.21628946 -0.20242012 -0.09425497 -0.13499244 -0.3113828 0.27358735
-0.32084918 0.42978057 -0.28641778 -0.45429346 0.0023611316 -0.07985739 0.48403004 -0.162892
-0.54712534 0.24975519 -0.1079399 0.15619658 0.19855846 0.07045584 0.04255532 -0.114747986
-0.24762169 0.21966206 -0.12258473 -0.20501769 0.12502068 0.3901278 0.12222357 0.062406123
0.70443875 0.049001843 -0.44273266 0.16347872 -0.61512667 -0.5803992 0.03847136 -1.1767334
0.1925015 0.214073 -0.025768619 -0.16611505 -0.06453197 -0.075899646 -0.1372687 0.27360633
0.057188876 0.18422155 -0.31893298 -0.1448805 0.13407391 0.045341734 -0.043774627 -0.06414356
0.28668314 -0.16630083 0.23572661 0.10974971 0.026752904 -0.077279076 -0.22699341 -0.14947826
-0.05986767 0.16710033 0.16988282 -0.3429616 0.3082023 -0.1434885 0.054070055 -0.26751736
-0.076765664 0.5223944 -0.07338828 -0.20174414 0.048232708 -0.033552065 0.088131905 0.4554548
0.5044054 -0.24180491 -0.46304047 0.15069088 -0.5844627 -0.14153008 0.056655727 -0.96201736

encoder_vsn.flattened_grn.fc1.bias f4 [6]
00000000: 75ae 24be 209e 4b3c cfc8 5fbc 262e 54bc
00000010: ef3b 763d ccaf ec3c
-0.16082175 0.012427837 -0.013658716 -0.012950456 0.06011575 0.02889242

encoder_vsn.flattened_grn.context.weight f4 [6, 16]
00000000: 48df 98be c5c1 d6be 81cc b8bb 569e 04bf
00000010: 37a2 853d 8d4c 1ebe 356e 0a3e 9425 6cbe
00000020: 1370 dbbe 2a7a b63e 74bb a5be 0764 1fbe
00000030: eae2 2bbf 2d1b 153e d5aa 583e 9d15 d03e
00000040: 6287 bf3b 1def c4be 7c96 a7bd f01a dcbe
00000050: 3860 9d3e 59cd 97be 0797 3b3d 9c32 c1be
00000060: e8bd 023f 56ac 973e 0856 8d3d a37a a4be
00000070: bb92 c13d f56d aabe c11f 913e 13b0 bdbe
00000080: 9a37 70bd 8ebd 9e3e f335 57bd 2096 713e
00000090: 0cfc b3be 84be 323e 0cf2 64be 3cd2 003e
000000a0: d027 343e 8690 f13e d5f4 1dbe b06a 7ebd
000000b0: 16c0 403c 18ef 9abe 0236 37bd f9a4 bf3c
000000c0: 3ced db3e 4c41 1bbe 370f 6cbd 4228 1cbf
000000d0: 0bb8 d33d 6c85 21be 6c7c ae3e 0912 b93d
000000e0: da17 cbbd c036 adbe 2b16 923e c7c0 8cbe
000000f0: bbad 86be 3126 fe3e 13e5 3a3d f32b 55be
00000100: 7411 c83c ea6c afbd 0abb 673e 887b a93e
00000110: 9cd6 493e d946 c83e 06e4 01bf 6e9e 633e
00000120: 29bc 3cbe 8506 3abc dc65 afbe 74ff 5a3d
00000130: 3f33 c53e 7efa 5a3e 36d7 9dbd 2608 57be
00000140: e282 443e df7a da3e a560 8c3c edfa e33e
00000150: 2e20 f0be 1f32 ab3d 8758 ab3d d4c2 f53e
00000160: c2d8 d0be bc92 e7be cc71 0d3e 256c ad3e
00000170: 9525 e6be bc0e 0b3e c828 ae3d e94b 313e
-0.2985785 -0.4194471 -0.005639613 -0.518041 0.06525081 -0.1545889 0.13518603 -0.2306121
-0.42858943 0.3564008 -0.32369578 -0.15565501 -0.6714312 0.14561148 0.21158917 0.4064149
0.0058449963 -0.3846368 -0.081829995 -0.42989302 0.30737472 -0.29648855 0.045798328 -0.37733924
0.51071024 0.2962367 0.06901175 -0.32124814 0.09451815 -0.33287016 0.2834454 -0.37048396
-0.058646776 0.31003994 -0.052541684 0.23592424 -0.35153234 0.17455488 -0.22357959 0.12580198
0.17593312 0.47180575 -0.15425427 -0.062113464 0.011764547 -0.3026054 -0.04472924 0.023394095
0.42954433 -0.15161628 -0.057631698 -0.6099893 0.10337838 -0.15773553 0.340793 0.09036643
-0.09916659 -0.33830833 0.28532538 -0.27490827 -0.2630442 0.49638513 0.04562862 -0.20817547
0.024422385 -0.085656956 0.22629943 0.3310206 0.19710773 0.39116552 -0.5073856 0.22228405
-0.18431152 -0.011354093 -0.342574 0.053466275 0.3851566 0.21384618 -0.07707064 -0.20999202
0.19190553 0.42671868 0.017135927 0.4452738 -0.4689955 0.08359169 0.083664946 0.48000205
-0.40790373 -0.45229137 0.13812941 0.3387157 -0.44950548 0.1357984 0.08503872 0.17314114

encoder_vsn.flattened_grn.fc2.weight f4 [6, 6]
00000000: 293b c93e 7ec9 353d cc45 67be 41eb 8dbe
00000010: a1c7 85bd 07b8 123f af10 903f b9f6 e73d
00000020: 45f2 1b3f 5f1a 873f 7626 093e 3dd7 9f3e
00000030: d5c4 693e fd70 1ebf 06e3 98bf d92d 9dbf
00000040: 1c8b 2abd dae7 21be 23ff 8d3e f949 e23c
00000050: 13ff c23d 441a e9bd 102f c6bd 6492 79bf
00000060: 329c b23f dcac 53bf b23d 98bf 641e 073f
00000070: 22a9 833f e58a a43e fa85 003f a2d9 c2be
00000080: ee09 2d3e b263 7c3d 35b8 0bbd 3b8e a13d
0.39302948 0.04438161 -0.22585219 -0.27718547 -0.06532217 0.57312053 1.1255091 0.113263555
0.6091655 1.0554923 0.13393578 0.312189 0.22828992 -0.61891156 -1.1944282 -1.2279617
-0.04163657 -0.158111 0.27733716 0.027623164 0.09521308 -0.11381963 -0.09676945 -0.97489
1.3953917 -0.8268564 -1.1893828 0.5278075 1.028599 0.32137218 0.5020443 -0.38056666
0.16898319 0.061618514 -0.03411122 0.078884564

encoder_vsn.flattened_grn.fc2.bias f4 [6]
00000000: 1d7e 53be f61b bbbe b90e 0dbe 39f2 523d
00000010: 949c 7dbd 3dec 53bd
-0.20653577 -0.3654477 -0.13775147 0.051500533 -0.061916903 -0.051738966

encoder_vsn.flattened_grn.gate_norm.glu.fc.weight f4 [12, 6]
00000000: 693e e33c af26 21bf 84de 8dbe b333 bc3e
00000010: ce90 16bf 45ff e6be e92f b13b c1a8 073e
00000020: 358a 963e 0011 f83d a9dc 2cbf ad06 19bc
00000030: 8261 203f 9391 9bbe 663c 903e 8896 a4be
00000040: 4579 2dbf 0b1c 293e 7594 013f ef9c ea3d
00000050: ab40 1f3e 17ea 95be 8f8e f9bd 7216 cabc
00000060: b076 243f d860 b03e a043 253f 34fb 413e
00000070: 800b 04bd 8293 043e 33de 02bd 9baa 913e
00000080: ea4d 59be b925 a3bd 0c0e a33d d21b ab3e
00000090: 3379 32bf 7bd4 68bf 0e54 81be f810 6f3e
000000a0: 15ff 45bf 93e9 16bf b73d debc 12ed cb3c
000000b0: 2f8e 8ebe a915 0ebc 1f82 733e 1dad 483e
000000c0: 5de1 84be 9962 93be f11d 2d3c 2419 a13d
000000d0: 8ede 043f 1601 9fbe ce4a bb3c 6aa5 2bbe
000000e0: 2a63 d4be f6fe 3d3f 9d3b fcbd 3d28 403e
000000f0: e789 1e3d d07d 8cbd 843e 943e 459d a73e
00000100: 742f 5d3d bb9e cebe 78d0 b93e 1027 a2be
00000110: 30a1 99be 9a95 f7be f2d6 9b3d 9ebb 5ebc
0.02773972 -0.6294965 -0.27708828 0.36758193 -0.58814704 -0.4511663 0.0054073227 0.13247968
0.2940232 0.121126175 -0.675242 -0.009339971 0.62648785 -0.30384502 0.2817108 -0.32146096
-0.6776317 0.16514604 0.5061715 0.11455714 0.15552013 -0.2928016 -0.12185394 -0.024668906
0.642436 0.34448886 0.6455631 0.18943483 -0.03223753 0.12946895 -0.031950187 0.28450474
-0.21221128 -0.079661794 0.079616636 0.33419663 -0.69716185 -0.9094922 -0.2525944 0.23346317
-0.7734235 -0.58950156 -0.027129037 0.024893317 -0.27842852 -0.008672156 0.23780106 0.19597287
-0.2595319 -0.28786162 0.010566221 0.07866123 0.5190209 -0.31055516 0.022862818 -0.16762319
-0.41481906 0.74217165 -0.12316058 0.1876535 0.038705733 -0.06859934 0.28953946 0.32737175
0.054000333 -0.40355477 0.36291862 -0.31670427 -0.3000579 -0.48356324 0.07609357 -0.013594536

encoder_vsn.flattened_grn.gate_norm.glu.fc.bias f4 [12]
00000000: 84dd 433f c1e0 603c 6d09 f1be fdeb bebe
00000010: a423 a6be 345d 183d a7f5 8f3f 742f 21bd
00000020: a678 313e f95a 8f3e b1c4 1f3d 3261 28be
0.7650988 0.0137254605 -0.47077504 -0.3728942 -0.32449067 0.03719826 1.1246842 -0.039351895
0.1733118 0.27999094 0.03900594 -0.16443327

encoder_vsn.flattened_grn.gate_norm.add_norm.norm.weight f4 [6]
00000000: 082b 773f b664 ff3e 6cac 153f 7578 183f
00000010: 2f4e 683f 205a 6c3f
0.96550035 0.49881524 0.5846622 0.595588 0.907443 0.9232502

encoder_vsn.flattened_grn.gate_norm.add_norm.norm.bias f4 [6]
00000000: a66e 3c3e 7f84 0c3f 79dc 553d 1ea8 a7be
00000010: 4c73 21bd 9ff2 2abd
0.18401584 0.54889673 0.052212212 -0.3274545 -0.039416596 -0.041735288

encoder_vsn.single_variable_grns.target_0.resample_norm.mask f4 [16]
00000000: 87d9 12be 50fa 49bd 8c59 afbc 7867 c1bd
00000010: 1814 afbd db28 663e 373d 143e 54b6 57be
00000020: 4a7b 2c3e 36ba 983e e847 6b3e 1169 1d3e
00000030: 2a82 523d 78aa 933d 27ca b0bd bc0b e9bd
-0.14340793 -0.049310982 -0.021405004 -0.09443563 -0.085487545 0.22476523 0.14476477 -0.21065646
0.16843906 0.29829568 0.22976649 0.15372111 0.051393665 0.07210249 -0.086323075 -0.11379191

encoder_vsn.single_variable_grns.target_0.resample_norm.norm.weight f4 [16]
00000000: d5a7 6d3f 32ba 843f ed43 6f3f 8bfe 5b3f
00000010: 6d38 7a3f d8d8 a33f 951c 8e3f 95d9 583f
00000020: 4e9e 903f 6089 943f f171 8a3f c105 933f
00000030: e4d4 7a3f eedd b53f 92d8 7b3f 9356 833f
0.92834216 1.0369322 0.9346302 0.85935277 0.9774235 1.280055 1.1102473 0.84707004
1.1298311 1.1604424 1.0816022 1.1486131 0.97981095 1.4208353 0.98377335 1.0260795

encoder_vsn.single_variable_grns.target_0.resample_norm.norm.bias f4 [16]
00000000: 7589 153e e21d cfbc 9b93 debd a04f 2cbe
00000010: c834 2bbc c252 2c3c df67 833d 9b1a 453e
00000020: 092b a2bc b662 113c 4452 14b9 209b 51bc
00000030: a95c cb3b 7bf0 edbc 8148 bfbd bdeb fcbc
0.14603217 -0.025282804 -0.10867997 -0.1682725 -0.010449596 0.010517778 0.06416296 0.1924843
-0.019795911 0.008873632 -0.00014145026 -0.012793332 0.0062061143 -0.029045334 -0.09340001 -0.030874128

encoder_vsn.single_variable_grns.target_0.fc1.weight f4 [8, 8]
00000000: df07 00bf 3f23 cd3c a447 ec3e ead0 f33c
00000010: def4 99be df6f 93be 3994 52bf 4577 943e
00000020: 5ec5 43bc d763 bfbe 8eb7 14be 8f76 ebbe
00000030: ede7 7fbf dd81 2fbf b2ea e03e 7984 07bf
00000040: d17d 2ebf 7f0c d93d b912 b4be 634f 343e
00000050: ebdb 40bf 1778 773e a4df 79be f21a 2f3e
00000060: 5582 983e 76c0 953c 1b2a 9dbe 299a 813e
00000070: 7268 a2be 972c 94be 012a 4ebe 9f60 043f
00000080: af84 883f 6d39 943c 88db e03e ae60 babe
00000090: 19f0 623f e277 053f b0a2 fa3e d23c 073e
000000a0: 2aef 10bd 3a77 29bf 0e5c 173f 0724 3d3f
000000b0: 3fa6 44be b6c6 b53e 52c8 d93d 8b45 08be
000000c0: 9b26 843f d63d 873e b962 013f df68 0c3f
000000d0: e020 8b3e 033c c73f 019a ad3c fdc9 d93e
000000e0: 9608 e83e a4f4 533e 20ba 6b3e dc49 1c3e
000000f0: eb3c b5be 5e55 3abf 9759 5cbe a3eb cdbe
-0.5001201 0.02504122 0.46148407 0.029762704 -0.3006963 -0.28796288 -0.8225742 0.28997245
-0.0119489115 -0.3738086 -0.14523146 -0.4598889 -0.99963266 -0.6855753 0.43929058 -0.5293651
-0.6816073 0.105980866 -0.35170534 0.17608409 -0.7533557 0.24166904 -0.24401718 0.17100123
0.29786935 0.01828025 -0.30696186 0.25312927 -0.3172031 -0.2894027 -0.2013321 0.5170993
1.0665492 0.018093789 0.4391749 -0.36401886 0.8864761 0.5213605 0.48952246 0.13206795
-0.035384335 -0.6619755 0.5912484 0.738831 -0.19204043 0.35503167 0.10633911 -0.13307779
1.0324281 0.26414365 0.50541264 0.5484752 0.2717352 1.5565189 0.021191599 0.42536917
0.4531905 0.20698792 0.2302022 0.1526255 -0.3539804 -0.7278651 -0.21518551 -0.4021884

encoder_vsn.single_variable_grns.target_0.fc1.bias f4 [8]
00000000: 69bb 0dbe 88a1 553d 5585 05bd fdcd 053d
00000010: 5bba c63d 296c 153e b85b 8fbc b065 a8bc
-0.13841023 0.052156 -0.03259786 0.03266715 0.09703513 0.14592041 -0.01749979 -0.0205563

encoder_vsn.single_variable_grns.target_0.fc2.weight f4 [8, 8]
00000000: 84be bf3e b369 d33e 7d3d 223f be3f 18bf
00000010: 69f1 55bc ae99 c5be 09db aabe 7edd 013f
00000020: 4650 bd3e 2340 3fbe f920 b1be 488f 58bf
00000030: e4e8 c8be b172 eb3e bd16 633e 7055 c13e
00000040: 08f2 56be 3d1c 423d 9ba5 d3be 2352 adbe
00000050: 474d 0cbe 8386 b63e 08b6 a6be 2243 a13c
00000060: d074 bdbf a059 f4be e2d5 f6be 6216 d6be
00000070: f447 973e f58e b4be cb89 743d 19dd 5ebe
00000080: 42a3 b13e 286e fcbe 24a7 2ebf 3a2a fdbe
00000090: 540e 31bf 041f 4cbd 4b72 c53e 3895 79bf
000000a0: 7634 913e 3719 133f 5b55 16bf 78bb 5d3f
000000b0: b792 9bbe 3e97 c7bd 0575 db3d 7591 413f
000000c0: 8e31 5fbe f76e 3f3f 0e56 e93e 9800 463e
000000d0: 8bf1 b13d f4e6 293f 825a b73e 4a57 96bf
000000e0: 4883 103f 3b2d 1fbf 42d2 9c3d 2043 e4be
000000f0: 98a1 1cbe 8b4d 223e d674 ce3d 3cb4 453f
0.3745004 0.4129158 0.63375074 -0.5947226 -0.013058045 -0.3859381 -0.33370236 0.50728595
0.36975306 -0.1867681 -0.3459547 -0.8459363 -0.3924018 0.4598594 0.22176643 0.37760496
-0.20990765 0.04739021 -0.41337284 -0.33851728 -0.13701354 0.356495 -0.32560754 0.019685332
-1.4801273 -0.47724628 -0.48210055 -0.41813952 0.29547083 -0.35265318 0.059701722 -0.2176403
0.34694868 -0.49302793 -0.68223786 -0.4944628 -0.6916249 -0.049834266 0.3856376 -0.97493315
0.28360337 0.5746035 -0.5872399 0.8661418 -0.30385372 -0.09745644 0.10715679 0.75612575
-0.21796247 0.74778694 0.45573467 0.19336164 0.08688649 0.6636803 0.3581124 -1.1745389
0.5645032 -0.6217839 0.07657291 -0.44582462 -0.15296018 0.15849893 0.100808784 0.7722814

encoder_vsn.single_variable_grns.target_0.fc2.bias f4 [8]
00000000: e148 74bd 026d 3b3d 33d7 d03d ad15 fb3d
00000010: 129b f3bd e523 d3bb 466b 873c f72e 81bd
-0.059639815 0.045758255 0.10197296 0.12259994 -0.11894812 -0.006443488 0.016530644 -0.06307786

encoder_vsn.single_variable_grns.target_0.gate_norm.glu.fc.weight f4 [32, 8]
00000000: 1250 9d3e a85b 813e 4d9e 5e3e 94da a1be
00000010: 9bac 9fbd 55d2 dbbc ae80 76be fdf9 d83e
00000020: f215 fabd 5b40 6e3e 1a50 1ebd a40c 05bd
00000030: 94a1 79bc dd0f ec3c a1e5 c5bc 7df7 7cbe
00000040: 6fde 21be 7a22 bfbe 8e8a f7bd cace 8e3e
00000050: e62a 7a3e 4950 05ba d258 77bd 89e1 d53d
00000060: 90ea 09be 836b aebe 84cf af3d 28ea 963e
00000070: d778 323e 1781 62bd 98e8 b33e cfb8 6bbe
00000080: 9c0b 7ebe 3ac6 093e ab20 b03d caf3 afbe
00000090: 89cd 0dbe b151 81be 865a c1bc 8bd5 833e
000000a0: 0e60 763d b3de c23e 9c16 b13d 866c bb3d
000000b0: a29f 2bbe 293c 833e ac8b d5bc 6c1e 96bd
000000c0: efc4 203e 5e7e b73d 1163 d03d 66d8 e6bd
000000d0: c74d 493d d79d d8bd 3feb dd3d d1b3 6cbd
000000e0: b92e c13d 8e50 f23e fc85 ffbb 5049 63be
000000f0: a146 bbbd c4a7 523e 3f04 343d 5886 9f3d
00000100: 9e92 743c b710 99be bfeb 423e a2bf 513e
00000110: 3589 2abe 62d0 3bbc 5403 953e a670 433e
00000120: efc1 773e bc43 6b3e ca27 073d 2f6f e3bd
00000130: c855 593e 934d fe3d 6c56 21be a948 03be
00000140: fd35 83be 3127 753e c801 933e f47c 34bd
00000150: 4718 3bbe 9990 a63d ccd9 13be 7f1b d43d
00000160: ec75 94bc df95 b13e c678 8dbd c4a4 3dbe
00000170: ff10 a1be 824a ab3e 026f 23be baa1 e93d
00000180: 1ba7 a9bd 0abc e93d 15ce a1bc 8819 adbd
00000190: fc59 a33e 7cdf fcbd eec2 03be be75 8a3e
000001a0: bfed 81be eac7 013d 2811 8fbe 471e 153d
000001b0: ddd1 c13d 9b9e 60be f979 753e 895b 20be
000001c0: 0afa 0cbd 6253 c43d 106c 50be 3f09 3cbe
000001d0: f2be f63d 3d72 acbe ab52 903e 0496 ed3d
000001e0: b891 c5bd f086 4f3e a192 b9bd 3cf4 50be
000001f0: 0a6d 093d f3e5 b6be ad17 ac3e 0edd 6fbd
00000200: de3b b43e 575e 153e 837c 81bd 7e08 82be
00000210: de49 dabe b342 143f 5b54 d7be fa61 3cbe
00000220: 2e6e c8ba 48e9 dbbe ea04 13be e2c2 743e
00000230: 30eb 22be 2e42 8cbe 3f36 933e 8747 4e3d
00000240: c14e e6bd 3d0a 78bd 1149 1e3e 17ff 9b3e
00000250: 47df f4be 606c c53d ab6f 4b3e baa6 bf3d
00000260: ceb7 143f 74ca c73e 69dc 1c3e 4043 aabd
00000270: 6d85 503e fc65 d03e 6e2a d6bd e042 d93e
00000280: 3465 e9bd b5ae 2dbe a5f7 4fbd a826 9c3e
00000290: f481 183e 949b b3be 5bc4 083f e050 60be
000002a0: 5662 03be 300e efbe 6492 68be 7d73 133f
000002b0: bfdb a8be a817 bbbe a8a7 933b e13a 28bf
000002c0: ceae 883b fc82 33be f772 3fbd 31a0 7dbe
000002d0: ca1d 96be 7547 6cbe 2323 0f3f 470c dabe
000002e0: d9e8 65be ed85 82be 109c 41be 41d4 d23e
000002f0: e2f9 783e d7f6 153e 846d a4bd e46d a9be
00000300: 5d20 0abf 2dd3 dabe c352 0dbe 5045 d33e
00000310: e60a 09bf 94c7 5a3e 448c 0d3f c166 04bf
00000320: fb4f 863e b89f 133d b6e2 1b3e 5ba8 2e3c
00000330: 7128 09be c812 5c3e 2447 2bbe 2b9b b33d
00000340: 6999 d83d a2af c9be e610 e63e 2c34 01be
00000350: 30e4 c1be 5878 b5bd 556a 063f db4f 27be
00000360: 7604 ea3e 1c33 27be 2f0e b53e 2450 5cbe
00000370: d8a6 cbbd f902 e83e cff8 97be f295 89be
00000380: a197 293d 5f1b 9cbe 4ee2 ce3e 0733 793e
00000390: c9dd 5abe 795a d4bd f7f5 7d3d b6bb c5be
000003a0: 0e6e a33e f40f dd3c 7b73 fc3d b366 3fbe
000003b0: 0048 aabe 11ea ee3e fa09 4dbe f9a6 07bc
000003c0: dc19 4a3e 954f a53d 3219 b1bc 9a8b fa3e
000003d0: 3e6a 12bf 5d17 733e fa8a 52be aadc 35be
000003e0: 9968 f4bd 05bd 30bf 6567 d43e e435 0abd
000003f0: e15b 09be 2aae 6c3e d6fd 5a3e 819e 02bd
0.3072515 0.2526524 0.21740074 -0.31612074 -0.07796594 -0.026833693 -0.24072525 0.42378226
-0.12211217 0.23266737 -0.03865061 -0.03248276 -0.015236277 0.028816158 -0.024157347 -0.24703784
-0.15807508 -0.3733099 -0.12086974 0.27892143 0.24430427 -0.0005085511 -0.06038744 0.10443408
-0.13468385 -0.340664 0.08584502 0.29475522 0.17428909 -0.05529889 0.35138392 -0.23019718
-0.24809116 0.13454524 0.08599981 -0.34365684 -0.13847937 -0.25257638 -0.023602735 0.25748858
0.0601502 0.3806053 0.086468905 0.091515586 -0.16760114 0.25631836 -0.026067577 -0.07330021
0.15700124 0.089596495 0.101751454 -0.112717435 0.04914644 -0.105769806 0.10835885 -0.057788674
0.0943274 0.47327083 -0.0077979546 -0.22195935 -0.09144331 0.2057181 0.043949362 0.07789296
0.014927534 -0.29895565 0.19035242 0.20483258 -0.16653903 -0.011463257 0.29104102 0.1908594
0.24195074 0.22975057 0.03299693 -0.11105191 0.21224129 0.1241714 -0.15755624 -0.12820686
-0.25627127 0.23940732 0.28712296 -0.044064477 -0.1827098 0.081330486 -0.14438552 0.10356807
-0.018122636 0.34684655 -0.06907801 -0.18519884 -0.3145828 0.33455282 -0.15960315 0.114078
-0.08283826 0.11412819 -0.019751588 -0.08452135 0.3190459 -0.12347314 -0.12867329 0.27042955
-0.25376698 0.031684794 -0.27942777 0.036405828 0.09463856 -0.21935503 0.2397231 -0.15659918
-0.034418143 0.095862165 -0.20353723 -0.18362902 0.12048139 -0.33680907 0.2818807 0.11600879
-0.09646934 0.20266318 -0.0906117 -0.20405668 0.033551253 -0.35722312 0.33611813 -0.058560424
0.35201925 0.14586769 -0.06322577 -0.25397104 -0.4263448 0.57914275 -0.42056546 -0.1839675
-0.0015291625 -0.42951417 -0.14357343 0.23902467 -0.1591003 -0.2739424 0.28752324 0.050361183
-0.1124549 -0.06055664 0.1545756 0.30468056 -0.47826597 0.096398115 0.19866817 0.093579724
0.58092964 0.39021647 0.15318455 -0.08313608 0.20363398 0.40702808 -0.104573116 0.42433834
-0.11396256 -0.16961177 -0.05077328 0.30498242 0.14893323 -0.35079634 0.53424615 -0.21905851
-0.12830481 -0.46690512 -0.22712094 0.57598096 -0.32980153 -0.36541486 0.00450607 -0.6571484
0.004171229 -0.17530435 -0.0467405 -0.2476814 -0.29319602 -0.23074134 0.5591299 -0.42587492
-0.22452106 -0.25492802 -0.1890719 0.41177562 0.24314073 0.14644943 -0.08028701 -0.33091652
-0.5395563 -0.4273924 -0.13801102 0.4126382 -0.53532255 0.21365196 0.55292153 -0.5171929
0.26232895 0.03604099 0.15223202 0.010660256 -0.13394333 0.2149154 -0.16726357 0.0876983
0.10576136 -0.3939181 0.44934767 -0.12617558 -0.37869406 -0.088608444 0.52506 -0.16339056
0.45706528 -0.1632809 0.35362384 -0.21514946 -0.09943932 0.45314768 -0.29682013 -0.26872212
0.04140437 -0.30489632 0.40407032 0.24335872 -0.21373667 -0.10368819 0.06200215 -0.38619775
0.31919903 0.026985146 0.12326714 -0.1869152 -0.33258057 0.46662953 -0.20023337 -0.0082795555
0.19736427 0.0807182 -0.02161846 0.48934633 -0.5719336 0.23739381 -0.20560828 -0.17759958
-0.11934013 -0.6903842 0.41485134 -0.0337428 -0.13413955 0.23113313 0.21385893 -0.031889442

encoder_vsn.single_variable_grns.target_0.gate_norm.glu.fc.bias f4 [32]
00000000: 6df5 143e fafc 44bb b73f eabd b1dc 0ebe
00000010: 6b0e 023d dcdd 94bc ae09 2f3d 2b05 433e
00000020: 52d4 983d 4928 bd3b 55c9 57ba 9949 87bc
00000030: 94cd a9bc 2cc1 53bd 61c0 96bd 9e08 62bd
00000040: 327e 9c3d 151a ebbe 3c6e 3dbe 624d 833d
00000050: 6aa9 05be 7323 7bbe de6e 56be dfba 5dbd
00000060: 91c7 02bf 3d67 2cbd bbf0 78be 474c 3abe
00000070: d1e7 0bbe 2a76 e4bc 1a7e 7abe 56d7 c1be
0.14546748 -0.0030058012 -0.11437934 -0.13951375 0.03175203 -0.018172197 0.04273384 0.1904494
0.07462372 0.0057726246 -0.00082316 -0.016514586 -0.02072791 -0.051697895 -0.07360912 -0.055184
0.07641257 -0.45918337 -0.18499082 0.06411244 -0.13052908 -0.24525242 -0.2094073 -0.054133292
-0.51085764 -0.042090643 -0.24310581 -0.1819316 -0.1366265 -0.027888376 -0.24462166 -0.378596

encoder_vsn.single_variable_grns.target_0.gate_norm.add_norm.norm.weight f4 [16]
00000000: 82b5 713f bede 7a3f afa6 803f dd3f 343f
00000010: 0f6c 743f 4606 b83f 557d 8b3f 1e62 473f
00000020: 16fa 833f 3c30 9d3f 8a79 8d3f 70af 7b3f
00000030: 2de8 6e3f 6dd3 843f 35b6 803f 10ac 783f
0.94417584 0.9799613 1.0050868 0.7040995 0.95477384 1.4376915 1.0897623 0.7788409
1.0310695 1.2280345 1.1052716 0.9831457 0.9332302 1.0377022 1.0055605 0.97137547

encoder_vsn.single_variable_grns.target_0.gate_norm.add_norm.norm.bias f4 [16]
00000000: 0911 2b3e db6b 66bc 80ca 28bd e1e1 22be
00000010: facb 29bc 9c24 d1ba 99a1 a63d 92e7 523e
00000020: bcd6 f03b 1ec3 df3c d8f9 7dbc c678 983d
00000030: 1051 013d c3ea 28bc db29 8cbd c8b2 4cbd
0.16705717 -0.014063801 -0.041208744 -0.15906478 -0.010363573 -0.0015956345 0.08136291 0.2059615
0.007349817 0.027314719 -0.015501462 0.07444911 0.031571448 -0.010309878 -0.06843921 -0.049975187

encoder_vsn.single_variable_grns.future_covariate_0.resample_norm.mask f4 [16]
00000000: 2892 853c af54 913d b1fa c8bd 67bf 3c3e
00000010: d415 773c c9b2 c5bc 76f1 ab3c a782 1b3e
00000020: d61a 003e 5019 f23d f62c 673d c4f6 1dbe
00000030: a75c 16be c1a1 0ebd f97d 1b3e 9d88 c23e
0.016305044 0.0709623 -0.098134406 0.18432389 0.015080888 -0.024133103 0.020989161 0.15186559
0.12510237 0.11821234 0.056439362 -0.15426165 -0.14683782 -0.03482223 0.15184774 0.37994853

encoder_vsn.single_variable_grns.future_covariate_0.resample_norm.norm.weight f4 [16]
00000000: 297f 643f 7474 b03f 3ca6 633f 4ca2 913f
00000010: f9a5 c43f b058 783f baec 6d3f 3da6 c13f
00000020: 8bdc 623f e10f 853f 343a 3f3f 1a90 c73f
00000030: 78a3 453f 8c03 7a3f 42a6 803f 1b13 563f
0.8925653 1.3785539 0.8892553 1.1377654 1.5363151 0.97010326 0.9293934 1.5128857
0.8861777 1.0395471 0.74698186 1.5590851 0.7720256 0.9766166 1.0050738 0.836229

encoder_vsn.single_variable_grns.future_covariate_0.resample_norm.norm.bias f4 [16]
00000000: a15a f8bc df83 6fbc 5eec 083e 3471 e4bd
00000010: b59d 8c3d 928e cc3c 449f d5bb a49c b9bd
00000020: 0326 08be 4186 d1bc a149 d7bd 4ae1 943e
00000030: c46c 1e3e 86c9 0e3d e396 06be a1e5 33be
-0.030316653 -0.014618843 0.13371417 -0.11154404 0.06866018 0.024970327 -0.00651923 -0.0906308
-0.1329575 -0.025576713 -0.105120905 0.29078132 0.15471178 0.034860156 -0.13143496 -0.17568065

encoder_vsn.single_variable_grns.future_covariate_0.fc1.weight f4 [8, 8]
00000000: a305 dcbe 8836 b83e d82e a6be 00b7 053e
00000010: 3104 a03d 45e3 993d a222 1e3f 00f0 813f
00000020: 7e5a 003f d94a debe a0bd a83e 0672 1cbf
00000030: cbc1 3c3f 3857 373f a7b2 86be 2a4f 8e3f
00000040: eb8b df3e ef5d 1d3f 718b ebbe 4976 783f
00000050: 28d9 893e 522c 5c3e 7d75 013e b492 95bd
00000060: 6196 af3f 22b7 f93e 9af0 87bd 9d4e 72bd
00000070: f5ec e8be 96a9 7ebc e8ae 05bf d2db eebf
00000080: 476f 913e d855 21bf fd9c 41bf 6e6b e2be
00000090: 3cde 863f 81b0 f93d c211 dabe d0f1 8e3f
000000a0: 5e2b 2dbf df49 883e 6379 4c3e 1b47 53bf
000000b0: c81e 2a3f 3f3c e53e c2fd 1ebe a917 f93e
000000c0: d4be 093f 11dd 373e 9058 20bf 0183 063f
000000d0: f39a 49bf 51d4 dcbe 0554 63be 40b6 cabf
000000e0: 082a 0bbe 9d24 ce3e 4356 88be 121a 9d3e
000000f0: 6a74 bdbf ef43 a8bd c203 aebe fc77 64bf
-0.4297305 0.35979104 -0.32457614 0.1305809 0.078132994 0.07514051 0.61771595 1.0151367
0.5013808 -0.4341648 0.32957172 -0.61111486 0.73733205 0.7161746 -0.26308176 1.1117909
0.43661436 0.61471456 -0.46004823 0.9705549 0.2692349 0.21501282 0.12642474 -0.07303372
1.3717767 0.48772532 -0.06637688 -0.059157003 -0.45493284 -0.015543362 -0.5222001 -1.8660834
0.2840521 -0.6302161 -0.7563017 -0.44222587 1.053657 0.121918686 -0.42591673 1.1167545
-0.676443 0.2661886 0.1996818 -0.82530373 0.6645322 0.44772527 -0.15526488 0.48650864
0.53806806 0.17955424 -0.62635136 0.52543646 -0.7875206 -0.43130735 -0.2220002 -1.5836868
-0.13590252 0.4026231 -0.26628312 0.30683953 -1.4801152 -0.08216082 -0.33987242 -0.8924558

encoder_vsn.single_variable_grns.future_covariate_0.fc1.bias f4 [8]
00000000: 4dac 743e 493e 983d 64f4 2f3e 453f a43d
00000010: 4c19 24bc b6eb 1c3e 4be4 2cbe 663d 0dbe
0.23893853 0.07433755 0.17183071 0.0801988 -0.010015797 0.15324292 -0.16883962 -0.13792953

encoder_vsn.single_variable_grns.future_covariate_0.fc2.weight f4 [8, 8]
00000000: 4bd7 ca3d 3a35 61be a93b b43d e5c7 a13f
00000010: 804a dcbd 7646 813e 63bb 3a3f 8fd5 223f
00000020: b9ad 8b3e 5f09 f43e 2759 5d3e ca6d 02bf
00000030: 7042 143f 26ec 5e3f 32b3 23bf 4953 bfbe
00000040: 4e2f 9b3e 58a9 883e eee2 163e 9027 c1be
00000050: 8ce1 753e 43d5 403f 01eb 6cbf 1c70 87be
00000060: 2fa5 083f f73a 733e 69ca c8be a143 64bf
00000070: b84b 513e 45c3 403f 5118 4cbe 1ef0 c1be
00000080: 0ebd 8bbe c720 993e bdd2 2bbf 4ce4 b6bf
00000090: ea4d 753d 2d90 943e a8de 05bf a50d 81be
000000a0: 6a66 173f ff24 983e 9b24 ec3d 1ffd 273f
000000b0: 0de4 c4be 54f8 3b3f 6b93 febd 105d 803e
000000c0: a3bc 99be 4db3 2ebf 8806 ca3d a4a3 f93e
000000d0: 0498 c6be 42e9 68bf 2149 9b3f 043b 853f
000000e0: a641 92be db24 293f 7bea f43d f6b8 45be
000000f0: 8575 e5be 13fc 77bd 9e14 1cbe 4f4a 78bf
0.09904345 -0.2199296 0.08800442 1.2639128 -0.10756397 0.2524907 0.7294218 0.63607115
0.27280977 0.476634 0.2161604 -0.50948775 0.57913876 0.87079084 -0.63945305 -0.3736823
0.30309528 0.266917 0.14735004 -0.37725496 0.2401182 0.7532541 -0.9254609 -0.2645272
0.5337705 0.23752962 -0.39216927 -0.89165694 0.2043904 0.7529796 -0.19931151 -0.37878507
-0.27292675 0.2990782 -0.67118436 -1.4288421 0.059888758 0.29016247 -0.5229287 -0.25205722
0.59140646 0.29715726 0.115304194 0.6562061 -0.3845524 0.73425794 -0.124304615 0.25071
-0.3002673 -0.6824234 0.09864527 0.4875766 -0.38787854 -0.90980923 1.2131692 1.0408635
-0.2856571 0.6607186 0.11958786 -0.19308838 -0.44816223 -0.06054313 -0.1524224 -0.96988386

encoder_vsn.single_variable_grns.future_covariate_0.fc2.bias f4 [8]
00000000: 58d6 ecbd 7fe8 91bc a1fe 783e a798 e4bc
00000010: 96b0 74bd 57b9 e23c 53f2 59be f22a 203c
-0.1156432 -0.017811058 0.24315883 -0.027904822 -0.059738718 0.027676268 -0.21283846 0.009775864

encoder_vsn.single_variable_grns.future_covariate_0.gate_norm.glu.fc.weight f4 [32, 8]
00000000: 7892 f9be ff1f 4e3e 0f89 8c3e b1a5 903e
00000010: cf61 ff3d 6aea 263e e77f 5abc 04b7 a1bd
00000020: 559b b93e e56d d2be a250 a4bc c5c1 2dbe
00000030: 61bb 6cbe 8e89 cc3c 7243 b53c a2c3 95be
00000040: 1423 b73e a608 b53e dc94 dd3c 0494 f33d
00000050: ed10 26be aa49 763e 997d aabe b9de 7d3d
00000060: 3d22 96be 15bc fb3e 94b5 e33e 2c49 133e
00000070: 2f56 0d3f 6a84 3abe 5d9a b5be 2b1d 90bc
00000080: 706d 0abe 2380 b0bd 4da2 233e ac06 b33e
00000090: dfdf f9bd 9741 adbd c928 1fbe dbe4 6b3d
000000a0: d0e5 9f3d 888c 043e b72f 21bd c60b cd3e
000000b0: c6b4 a93e a0c7 f63d f092 d2bd e7ea 5d3e
000000c0: bca2 3c3e ed5c 02be 4055 1abe 87b6 98be
000000d0: f815 a93e 46bd 643e 44a9 a9bd 960a 46be
000000e0: f0aa 0f3f 9ab2 f2be c5c3 c0be da58 d2be
000000f0: 7524 a2be 1dbb c6bd 0f7f 093f ec1a a0be
00000100: 68f3 a8be 5e68 54be 9a3a 45bc 42e4 843e
00000110: 57f8 d13e 01b1 823e 6c85 1ebf cb31 903c
00000120: 741b 31be 5f30 c83e a64f 153e 10d2 11be
00000130: 26b9 b33e c211 6d3e 9a82 dabe 3bd5 443e
00000140: 9f00 573d 211b aebe ecde b23c 52ab e7bb
00000150: 41aa 6bbe 319a 893e 8b89 e63d 27bb 643e
00000160: b797 c2bd 05aa 4c3f cb45 943e ec2c b93e
00000170: 092c 113f 6155 41be ba14 b0be 5719 0abe
00000180: 82df fa3e 1d24 5b3e 8198 9fbe 6927 0bbf
00000190: b057 27be 8ec8 5fbe 973c 1f3f 96af 02bf
000001a0: 148a 953e f1e0 6abe 8f78 16bf 700a 623e
000001b0: 34f2 843d ec5e 0ebc 6b80 e53e 1b97 68be
000001c0: 9883 293d dd83 a1be e9e5 95bd b4c0 cfbe
000001d0: 1809 e9be a06e d53e 8a46 a83e 2e58 193d
000001e0: 2113 fdbe 5229 b13e 01e9 d23e 90af 0dbe
000001f0: 1774 873e dd91 9cbd c0aa 76bd 0450 9b3c
00000200: ad1d fe3b 64aa 813e 32bc 80be 8793 413e
00000210: 02e3 b93e 86e2 043e b2aa 963e e930 cfbe
00000220: 2a2f 973d 090c 3c3e c76c 9fbd a7a1 013c
00000230: b056 01bd c6e5 1fbc 96fe 72be ec15 a4be
00000240: 250a cebd 250f 183e 3a19 b03e 1981 5f3e
00000250: f148 ff3d c3a2 29be 570f 09bf a04a ef3e
00000260: 6080 b5be c3ee 943e 1fd6 b13e 72b1 963e
00000270: e705 313f 8caa 633c 3e18 4abf c7f8 6a3e
00000280: 98ac 5cbe 5540 1c3d 12ee 3e3d 3bb2 bd3b
00000290: aed6 cebe 4491 cdbd ba8a 0dbe e5fc 253f
000002a0: 0604 b63d 8204 d73e 2bd1 70bc 1f50 ac3e
000002b0: 247b 13be 2f04 263e 4aaa b6be b5d5 c93e
000002c0: 0de8 e83d f7f0 b1be 660e 5fbe 2ba5 21bf
000002d0: 7344 c2be 779b 0cbd cd05 013d f555 d33e
000002e0: d024 873e 83ab 9ebe 10fc b7be 811c 003f
000002f0: d996 943e 2fb6 99be 8bc1 293e f8bc 09bf
00000300: daf7 64be 7f69 7f3e c083 07be a814 a93e
00000310: 8b8a 393e 9484 013c 843e ffbd 540f 6d3b
00000320: 9f49 6abe c7fe 85bd 3b9d 39bd ed86 333e
00000330: 060f 753e 4939 4e3e 0474 89bd 043a 663e
00000340: a345 8f3e 78bc f33e c05c 89be 7124 3f3e
00000350: 5586 eb3e 7644 d33d bb0e 30bd eef5 7e3e
00000360: 1dd8 3f3f c6a4 cfbe 072a 2ebe 66d0 34be
00000370: 67d7 a4bd acd2 afbe a19a 103f 8710 b6be
00000380: 419c ac3e 8ccd 833e b811 133d d888 513e
00000390: 8c00 c33e 79c8 09bf b6a9 7abd e7f1 273b
000003a0: 85fe c63e 6b21 643e a1a8 cfbe 63bc 86be
000003b0: 4b00 39bd 123c ad3e 503c aa3d 078d 33bd
000003c0: 0b76 f9bc 6c10 55be b942 c4be 8912 dabd
000003d0: a0a3 533e bcf4 ac3b 1c00 ba3d 9eed 0cbe
000003e0: d08d 8d3d 26c5 4abc 9243 d63d 7556 683e
000003f0: 78cd 79bd 93a0 413e 5107 593a 329c f23d
-0.4874456 0.20129393 0.27448317 0.28251413 0.124698274 0.1630036 -0.013336158 -0.078962356
0.3625132 -0.41099468 -0.02005798 -0.16968448 -0.23118354 0.024967935 0.022126887 -0.29250818
0.3576895 0.3535816 0.02704852 0.11893466 -0.16217394 0.24051538 -0.33298948 0.061979983
-0.29322997 0.49166933 0.4447447 0.14383382 0.5520963 -0.18214574 -0.35469332 -0.017592033
-0.1351831 -0.0861819 0.15979882 0.34966028 -0.12200903 -0.08459776 -0.15542902 0.0575913
0.07807505 0.12944233 -0.039352145 0.40048045 0.33145732 0.12049794 -0.10281932 0.2167164
0.18421453 -0.12730761 -0.15071583 -0.29826757 0.33024573 0.22337827 -0.08284238 -0.19339976
0.56120205 -0.47401887 -0.3764936 -0.41083413 -0.3166844 -0.09703658 0.537095 -0.3127054
-0.32998204 -0.20742938 -0.0120378975 0.25955397 0.4100978 0.25525668 -0.61922336 0.017601868
-0.17295629 0.39099404 0.14581165 -0.14240289 0.35102195 0.23151305 -0.42677766 0.19221966
0.052490827 -0.34005073 0.021834813 -0.0070699835 -0.23014165 0.2687545 0.11256703 0.22337018
-0.095015936 0.7994693 0.28959498 0.36167085 0.5670782 -0.18880226 -0.34390813 -0.13486229
0.48998648 0.21400495 -0.3117104 -0.5435701 -0.16342044 -0.2185385 0.6220183 -0.5104917
0.29206908 -0.22937371 -0.5877771 0.22074294 0.06491509 -0.008689623 0.44824538 -0.22713892
0.041385263 -0.31545916 -0.073192425 -0.40576708 -0.4551475 0.41685963 0.32866317 0.03743761
-0.49428657 0.34601837 0.41193393 -0.13836503 0.26455757 -0.07645009 -0.060221434 0.018959053
0.0077550025 0.2532531 -0.25143582 0.18903933 0.36306006 0.12977037 0.29427105 -0.40467003
0.07382043 0.18363966 -0.077844195 0.007912076 -0.031576812 -0.009759372 -0.2372993 -0.32047975
-0.10060529 0.14849527 0.34394246 0.2182659 0.12465084 -0.16565995 -0.5353903 0.46736622
-0.35449505 0.2908841 0.34733674 0.29432255 0.6914963 0.013895642 -0.7894324 0.22946464
-0.21550214 0.03814729 0.04661376 0.005789069 -0.40398163 -0.10037473 -0.13822451 0.6483901
0.08887486 0.41995627 -0.014698307 0.33654878 -0.14402443 0.16212533 -0.35676795 0.39420858
0.11372385 -0.34754154 -0.21782836 -0.6314265 -0.37942848 -0.03432795 0.031499673 0.41276518
0.26395273 -0.30990228 -0.35934496 0.50043494 0.29021338 -0.30021808 0.16577737 -0.5380397
-0.22360173 0.24942587 -0.13233852 0.33023572 0.18119256 0.007905144 -0.12463096 0.0036172466
-0.22879647 -0.065427355 -0.045315962 0.17531939 0.23931512 0.2013904 -0.06711581 0.22483069
0.27982816 0.47604728 -0.26828575 0.18666245 0.46000925 0.10315792 -0.042982798 0.24898502
0.7493914 -0.405554 -0.1700822 -0.17657623 -0.08048897 -0.34340417 0.56485945 -0.35559484
0.33712962 0.25742757 0.03590557 0.20462358 0.38086355 -0.5382152 -0.061197005 0.0025626363
0.38866058 0.22278373 -0.4055834 -0.26315603 -0.045166295 0.33834893 0.08312285 -0.043835666
-0.030451795 -0.20807046 -0.38332155 -0.106480666 0.20667887 0.005278198 0.09082052 -0.13762519
0.06911814 -0.012376105 0.10462107 0.2268923 -0.060986966 0.1890891 0.00082789833 0.11846198

encoder_vsn.single_variable_grns.future_covariate_0.gate_norm.glu.fc.bias f4 [32]
00000000: 6806 8bbc dcb9 413c 3862 f73d 63e9 61bd
00000010: 97df 603d 2ac0 1e3d d364 ddbc cc62 fe3b
00000020: 0f07 d8bd 59da 353c 8628 28be 56a4 673e
00000030: 35ff d23d 6a7a 1a3d c9b9 08be 3426 abbd
00000040: ea60 ee3d 2156 9a3d ae2f 20be e215 e13b
00000050: bbc2 ddbd 17b0 14be 5516 7abe a1a9 fd3e
00000060: 583d 403e 88cd cc3d aa1a 953d c2c8 d03e
00000070: 906f cc3e aec6 c0bd 2946 353d da12 a73d
-0.016970828 0.0118240975 0.120792806 -0.055154216 0.054900732 0.03875748 -0.027025616 0.0077632423
-0.10548221 0.011099421 -0.16421708 0.22621283 0.10302583 0.0377144 -0.13352121 -0.08356896
0.11639579 0.07535959 -0.15643188 0.0068690637 -0.108281575 -0.14520298 -0.24422581 0.4954348
0.18773401 0.100001395 0.072804764 0.40778166 0.39928865 -0.09412895 0.044256363 0.081578925

encoder_vsn.single_variable_grns.future_covariate_0.gate_norm.add_norm.norm.weight f4 [16]
00000000: 0def 863f 9b1b af3f 23c2 793f 7187 b13f
00000010: 85dd a43f e780 513f e5ce 4c3f 05cf cb3f
00000020: 249a 883f 305a 943f 8af6 2e3f 5634 e33f
00000030: 7d13 7e3f b919 823f 9186 703f 554a 7c3f
1.0541703 1.36803 0.97561854 1.3869458 1.2880102 0.81837314 0.80003196 1.5922552
1.067204 1.1590023 0.6834494 1.7750347 0.99248487 1.01641 0.9395533 0.9855092

encoder_vsn.single_variable_grns.future_covariate_0.gate_norm.add_norm.norm.bias f4 [16]
00000000: 6f71 c63d 9587 8cbd cb04 cc3c 1017 d8bd
00000010: 7f63 7e3d 0dae 023c ec0f 9f3d 464b 223e
00000020: 03ec cc3c 0a59 6f3d ec7e 80bd b825 db3d
00000030: 989d 8ebc 4487 44bb 9d38 cebd cdc6 8c3c
0.096896045 -0.06861798 0.02490463 -0.10551274 0.062106606 0.007976067 0.07766709 0.15849027
0.025014883 0.058434524 -0.062742084 0.10700554 -0.01740913 -0.002998785 -0.10069392 0.01718464

encoder_vsn.single_variable_grns.future_covariate_1.resample_norm.mask f4 [16]
00000000: a12f 4cbc 7f24 6abd 57f8 8dbc 74da afbd
00000010: 0488 5ebd 72d9 6f3e b0ea e43d 3174 6e3e
00000020: 7376 82bc 6cae a1bb bab1 f8bc 5e66 943f
00000030: fa7e 14be f2c6 9cbc ac45 efbd 9cb6 86bd
-0.0124625275 -0.05716371 -0.017330332 -0.085865885 -0.054328933 0.23422793 0.111775756 0.23286511
-0.015925622 -0.004934123 -0.030358184 1.159374 -0.14501563 -0.019137833 -0.11683211 -0.06577799

encoder_vsn.single_variable_grns.future_covariate_1.resample_norm.norm.weight f4 [16]
00000000: c593 7d3f a049 6e3f 41bb 793f 8f07 683f
00000010: 4230 563f 152a 893f e063 8d3f 4603 8b3f
00000020: d41f 793f 420d 803f 6714 713f 70a3 de3f
00000030: a8d0 593f 655b 7e3f f0e1 623f 4f9e 6b3f
0.99053603 0.9308109 0.9755135 0.90636533 0.83667386 1.0715967 1.1046104 1.0860374
0.9731419 1.0004046 0.94171757 1.7393627 0.8508401 0.99358207 0.88626003 0.92038435

encoder_vsn.single_variable_grns.future_covariate_1.resample_norm.norm.bias f4 [16]
00000000: b0b5 a83b caf7 8b3d deb9 e93c b4a7 e63d
00000010: ee1a 09bd 3f1c 243c 1754 b53d db3c ab3c
00000020: 460c 533d 0c99 d13b fb29 f739 2297 4dbd
00000030: 20b0 61be ef3d b8bc 90dd e8bd 639b 70bd
0.005148612 0.068343714 0.028531011 0.112624556 -0.033472948 0.0100165 0.088539295 0.020903042
0.051525377 0.0063964184 0.0004714279 -0.05019296 -0.22039843 -0.02249047 -0.11370385 -0.05874194

encoder_vsn.single_variable_grns.future_covariate_1.fc1.weight f4 [8, 8]
00000000: 436d 373f a851 31be 4f4d 27bf 1510 7a3f
00000010: a66d 35be 0cf1 b1bf 2267 02bf af96 143e
00000020: 1e59 a03e 7908 c93e 40e5 84be a721 97be
00000030: 4083 39bf 9b55 963f cb6c c63e 7d6d 153e
00000040: 4a9e 783f ce36 46bf a45f da3e 2e04 383d
00000050: 5818 4e3e 7e6f 80be c433 c43e 56a5 febe
00000060: ce26 31bc da61 b93e 143c 4a3e 7f3b 453f
00000070: 9354 28bf c976 62bf 37b0 0a3e bfca 61be
00000080: 6a3b 63be 30cf d5be c296 bd3e 64ee 9b3e
00000090: bf0b 2a3e 64fe b53f 3c68 343f ea45 94be
000000a0: c06d 7abe f458 33bf 4a90 c4bd 9675 3b3e
000000b0: 1d44 ec3e 9f17 d8bb 244b 913e 66ca 3dbf
000000c0: 36a2 47be 6cc6 963e c97d 90be 375a 433e
000000d0: 7a16 03bf 04bd a43f f017 713e e3eb 21bf
000000e0: 5b62 e0be ea41 a4bc 7157 05bf acd4 a9be
000000f0: ac3e d13a 8084 83bd ce3a 1cbe d2ed d73e
0.71651095 -0.17316306 -0.6535234 0.9768079 -0.17717609 -1.3901687 -0.5093862 0.14510606
0.3131799 0.39264277 -0.25956154 -0.29517862 -0.72465897 1.1744875 0.38754877 0.14592548
0.9711653 -0.77427375 0.42651093 0.04492586 0.20126474 -0.25085062 0.38320744 -0.49735516
-0.010812474 0.36207467 0.1974948 0.7704391 -0.6575405 -0.884625 0.13543783 -0.22049998
-0.22190633 -0.41759634 0.37029082 0.30455315 0.16606043 1.4218259 0.7047155 -0.2895959
-0.24455929 -0.70057607 -0.095978335 0.18306574 0.46145716 -0.0065946127 0.2837764 -0.7413696
-0.19495472 0.2944826 -0.28220966 0.19077383 -0.5120617 1.2870183 0.23544288 -0.6325056
-0.4382504 -0.020050962 -0.5208655 -0.33170068 0.0015964112 -0.06421757 -0.15256807 0.4217363

encoder_vsn.single_variable_grns.future_covariate_1.fc1.bias f4 [8]
00000000: db23 843a cceb d3bd 8976 9bbd dd75 3bbd
00000010: 1683 1cbd 510f 97bd eb6a e8bd ff7b d23c
0.0010081487 -0.10347709 -0.07590968 -0.0457667 -0.03821095 -0.07375968 -0.11348518 0.025693892

encoder_vsn.single_variable_grns.future_covariate_1.fc2.weight f4 [8, 8]
00000000: 6ac1 73bf ccb1 f43e 9aae 953e e0a6 2cbe
00000010: 65ae 553f df59 b0be 57b3 c63c 9107 263f
00000020: c350 5f3e 024f 2abf ae46 36be 8f31 26be
00000030: 0d6d 803e 23bf 0fbf ab9a cfbe 21f9 f0bd
00000040: 7049 1e3f fd9e febe 4e63 163e 7c5a dbbe
00000050: 6c99 7cbf ac62 48be c37e bebe 361e f13e
00000060: 791d 433f 74ef ed3d b4da 393f 52f2 413f
00000070: 4ff6 953e a5ad f7be 0fc3 2e3e 1c28 b8bd
00000080: d512 4e3f 6e37 2abf e7ad 573e c399 663f
00000090: 0165 9fbf bf28 46bf f321 9dbe af6b 9a3c
000000a0: a04d 633e c975 983f c7f5 853e 7b5e 9cbe
000000b0: 9578 0dbd e2a8 133f e407 9a3f 7efe 27bf
000000c0: c705 edbe 9311 3dbd ec51 03bf 8602 90be
000000d0: 5a97 0e3f e5db 8fbe 5cfa 183f 155d c73d
000000e0: 495e 8b3e 9832 6abf 4e28 033d ad16 b53e
000000f0: 1b63 64bf 91dc 26bf 5c5b db3d d82a de3e
-0.95217 0.47791898 0.29234773 -0.16860533 0.8346923 -0.34443566 0.024255438 0.64855295
0.21808152 -0.66526806 -0.178004 -0.16229843 0.250832 -0.56151026 -0.4054769 -0.117662676
0.61830807 -0.49730673 0.14686319 -0.42842472 -0.98671603 -0.1956889 -0.37206087 0.47093362
0.76216847 0.11617938 0.7259934 0.75760376 0.2928948 -0.48374668 0.17066596 -0.08992025
0.80497485 -0.6649083 0.21062432 0.9007837 -1.2452699 -0.77405924 -0.30689964 0.018850176
0.2219758 1.1910945 0.26164076 -0.30540833 -0.034538824 0.5767957 1.2033658 -0.656227
-0.4629347 -0.04615934 -0.5129688 -0.28126925 0.55699694 -0.28097454 0.5975702 0.09734551
0.2722037 -0.9148345 0.03202086 0.35368863 -0.8921372 -0.6518031 0.10710785 0.43392062

encoder_vsn.single_variable_grns.future_covariate_1.fc2.bias f4 [8]
00000000: 3781 d5bd e6a3 333d e7e2 d83d 6d9a b6bd
00000010: 7510 4cbd d7b8 28be bb06 1cbd 3a63 833d
-0.104250364 0.043857478 0.10590153 -0.08916173 -0.049820382 -0.16476761 -0.038092356 0.0641541

encoder_vsn.single_variable_grns.future_covariate_1.gate_norm.glu.fc.weight f4 [32, 8]
00000000: 5d9d 1b3d 5817 843d 72dc 033e 1383 7e3e
00000010: 3847 2a3e 1873 c73d 2f52 313e 26c0 9fbe
00000020: d375 a4be b5d7 ab3e dae2 bf3e 1424 97be
00000030: 3f06 423e 7fa0 29be 9eed 0dbf 0187 b53c
00000040: 044b 44be 5627 f9bd 8d0e 633e 0b43 3c3e
00000050: 5114 d2be d5f8 24be b5d4 4fbe 5847 5f3d
00000060: f15b 9bbe 4fa8 bfbc 19f1 723e f59c a83e
00000070: b6ca 323f 8739 a3be caf3 e4be 5e9f cd3e
00000080: d588 533e 84bf 413e 1cb6 5c3e f756 8c3c
00000090: 1d49 f5bc 66a8 b7bd 40da f23e 8994 c8be
000000a0: ddd2 77bc f00f 743e 0457 6fbe 3117 3c3e
000000b0: 8db7 a5be 0576 83bd 2881 9bbd 3121 643e
000000c0: 6c5c f33d ed6c 6cbd 59e8 9fbe 2c46 383d
000000d0: f456 563e ee17 f7be bb6f 4cbc f8cf 713e
000000e0: 6feb a7bd 7a83 97bc 81d9 1fbc a490 ea3d
000000f0: 12ff d33e a005 c23d 879d d5bd a51e eabd
00000100: a2a7 d1be 2c42 f73e c30f 023f 1d7f 19bc
00000110: 77da e63e 56cc 3bbe 46da e5be aa70 f43e
00000120: 2da7 933d e9df c23e fa2e 7f3e 47e6 923e
00000130: f294 643e 9d48 aebe 3c2a 5ebe fd07 673e
00000140: 32b9 d7be aa23 313e 5245 f63d 0daf 9a3e
00000150: 9fef c43e 189a 72be eb31 41be bcdc d93d
00000160: 1340 013f 91cc 67be 02d1 02bf 638b a93d
00000170: 317d 19bf 96e7 8d3e 781d f93e 39e3 f5bd
00000180: ef66 283e 6c04 61be 5395 893e bb71 99be
00000190: 13d5 a1bd 38d5 b83e 1bdc 423e 022d 3dbd
000001a0: 0a0a b93e 4767 3ebe fc0f c4bc a699 f8bd
000001b0: 7675 0bbf 146d 52be 4df4 553e 66e0 483e
000001c0: b467 dabe 9d0c 9e3e 1553 133d 2f70 79be
000001d0: b12d ce3e b528 bebe e63b 97bd 0b43 f5bc
000001e0: f017 9a3e 6e08 a8be 75b8 5ebe c410 30be
000001f0: 14fc 01be 6df2 8e3e 28af 663e b703 663e
00000200: d509 6d3e 8773 b7be 0cf6 ed3d 1e04 e9bd
00000210: 4d91 34bd 495d b93e a86a 033e 6c0d 973e
00000220: a648 ce3e 644d 9ebe 7c33 21be 4835 c2bd
00000230: ef2b 323d 7d45 043e a1be 233f 9a52 a7bd
00000240: 47c4 91be 11f2 e93e f9e2 d4bd d746 5dbe
00000250: 1f4c c6be 35aa 483e a49d b6bd 8d5c 4cbd
00000260: aa53 be3d 4908 6dbe 9f5c 2abe 4900 8f3e
00000270: fe19 5ebe f986 21be 805f 633e 468f 17bf
00000280: 56db 05be 8118 3f3e dacc 37be 4018 77be
00000290: ce28 f2bd aefa 183c fd1e b6bd 6944 b03d
000002a0: 1982 c5bd 42ed a13d 2ff0 f13e e13c 93bd
000002b0: f6b1 ee3e d754 a9be 9953 433e 2d6c 9b3d
000002c0: 93fa f3bd 01ce 95bd e0ce 1d3e ed9f 88be
000002d0: 6b02 2bbe fc89 e9bd 045c 383e b2ce 25bd
000002e0: 941e fb3c a0cb d13e 3acb 033f c693 88be
000002f0: befc 433e 3bf5 843d 15c0 e73d cdb1 f33e
00000300: 0736 05bf ba40 373d 5e0e 9f3e 071d 16be
00000310: 8471 373d a9ba 513e 9dbd 0c3e c16b 263d
00000320: f0c4 a4be 9183 6d3e 7cee 1d3f 7c3c 113d
00000330: 73ba 783e e366 04bf f231 a5b9 2adc 0e3f
00000340: 777e aa3d fbea b3be 8a81 373e 6fb0 bc3e
00000350: 35ee 63bc e27a 343e 6000 a7be 5dd4 6abe
00000360: 25c3 73be 8e80 16be cebf 3abd 118c cb3e
00000370: 49b0 81be 148c 9dbe 58c9 d6be b0d1 94be
00000380: 2e52 123e 3fe6 983e a87f 913e d9ee 983e
00000390: aeca d13e d57e b53c 68ba 9ebd b78b a03e
000003a0: b9eb fabc 5415 88be 517d 8ebe a248 5ebe
000003b0: d0b0 a93e d71f 143e c541 6fbe 1f88 3c3e
000003c0: f411 8f3e 3f92 973e 879e a13d 5017 87bd
000003d0: 5f72 7cbe 2d90 6e3e 0498 cf3e 9797 e33d
000003e0: e826 303d 7866 e53d 4a30 07be b689 833e
000003f0: e62e dfbe a8fd 273e 5b5f 8b3e 7dfe e93d
0.03799187 0.06449765 0.12877062 0.24854688 0.1662873 0.09738749 0.17316507 -0.31201285
-0.32121143 0.3356301 0.37477762 -0.29519713 0.18947695 -0.1656513 -0.554407 0.022159101
-0.19169241 -0.12165706 0.2217352 0.1838495 -0.41031125 -0.16110547 -0.20295985 0.054511398
-0.30343583 -0.023395685 0.23724784 0.3293225 0.6984056 -0.31879827 -0.44717246 0.4016065
0.20657666 0.18920714 0.21553844 0.017131312 -0.02994209 -0.08967666 0.47432137 -0.39175823
-0.015125957 0.23834205 -0.23373038 0.18368222 -0.323666 -0.06418995 -0.07592994 0.22278287
0.118828624 -0.057721067 -0.31231955 0.044988796 0.20931607 -0.48260444 -0.0124778105 0.2361449
-0.08199202 -0.01849531 -0.009756447 0.11453369 0.4140554 0.09473729 -0.104304366 -0.11431626
-0.40948206 0.48292673 0.508053 -0.009368685 0.4508855 -0.18339667 -0.44893092 0.47742206
0.072096206 0.38061455 0.24920264 0.28691313 0.22322443 -0.34039775 -0.21695799 0.22561641
-0.4213348 0.17298761 0.120249406 0.30211678 0.38464066 -0.23691595 -0.18866698 0.10637805
0.50488394 -0.2263663 -0.5110017 0.08278539 -0.5995665 0.2771575 0.48655295 -0.1200623
0.16445516 -0.21974343 0.26871738 -0.29969582 -0.07901969 0.36100173 0.19029276 -0.0461855
0.36140472 -0.18594085 -0.023933403 -0.12138681 -0.54476106 -0.20549423 0.20893975 0.19616851
-0.42657244 0.30868998 0.035967905 -0.24359201 0.40269235 -0.37140432 -0.073844716 -0.029939195
0.30096388 -0.3281893 -0.21750052 -0.17193896 -0.12693816 0.2791933 0.22527754 0.22462355
0.23148282 -0.35830328 0.11619195 -0.113777384 -0.044083882 0.36203983 0.12833655 0.29502428
0.402898 -0.3091842 -0.15742296 -0.09482819 0.04349893 0.12917133 0.6396275 -0.08170052
-0.2847006 0.45692495 -0.10394854 -0.21609055 -0.3872995 0.19596179 -0.08916786 -0.04989295
0.092933014 -0.23147692 -0.16636895 0.27929905 -0.21689603 -0.15774144 0.22204399 -0.5920299
-0.13071951 0.18661691 -0.17949238 -0.24130344 -0.11824189 0.00933711 -0.08892629 0.08606798
-0.09643955 0.079065815 0.47253558 -0.07189346 0.46620148 -0.3307254 0.19074859 0.07588992
-0.119130276 -0.07314683 0.15410948 -0.26684514 -0.16700141 -0.114032716 0.18003851 -0.040480323
0.03065423 0.40975666 0.51481974 -0.26675242 0.19139382 0.064920865 0.113159336 0.4759659
-0.52035564 0.044739462 0.3106565 -0.1465951 0.04478599 0.20481361 0.13744207 0.040630106
-0.321815 0.2319472 0.61692023 0.035458073 0.24289875 -0.5171949 -0.00031508465 0.55804694
0.083249025 -0.35140213 0.17920509 0.36853358 -0.013911773 0.17625001 -0.32617474 -0.22932573
-0.2380491 -0.14697477 -0.045593075 0.397553 -0.25329807 -0.30770934 -0.41950488 -0.2906623
0.14289162 0.29863164 0.28417706 0.29869726 0.40974945 0.022155205 -0.07750398 0.31356594
-0.03062998 -0.26578772 -0.27829984 -0.21707395 0.3314271 0.14465271 -0.23364933 0.18411301
0.27943385 0.29603764 0.07891565 -0.065962434 -0.24653004 0.23297186 0.40545666 0.11112898
0.043005854 0.11201185 -0.13202015 0.25691003 -0.43590468 0.16405356 0.27221188 0.11425493

encoder_vsn.single_variable_grns.future_covariate_1.gate_norm.glu.fc.bias f4 [32]
00000000: 19c8 d03c 9b10 9f3d ad27 2f3d 34d0 843d
00000010: 5ab1 99bd 60b9 083d c8e9 aa3d bcfc 7a3d
00000020: 8ecb 473e 9208 a63c f166 9ebb 89e1 62bb
00000030: fd41 85be e818 c3bc 9017 c7bd 3f8a 1abd
00000040: 8b0e 16be 50ea 77be b1e6 c0be 5afd 2c3e
00000050: 638e 39be 8971 80be f647 d2bc 1196 15be
00000060: ab58 2b3e 337a 19be ed9d a33e 82e2 d33e
00000070: 6514 cc3d 01d1 3a3d 8710 8839 2d29 d4bd
0.025486039 0.07766839 0.042762447 0.06485024 -0.0750453 0.033379912 0.083453715 0.061276183
0.19511244 0.020267759 -0.004834049 -0.0034619293 -0.26026908 -0.023815587 -0.09721291 -0.037729498
-0.14653985 -0.24210477 -0.37676004 0.16893521 -0.18120722 -0.2508662 -0.02566908 -0.14608027
0.16733043 -0.14988022 0.31956425 0.4138375 0.099648274 0.045609478 0.00025952255 -0.10359416

encoder_vsn.single_variable_grns.future_covariate_1.gate_norm.add_norm.norm.weight f4 [16]
00000000: 5b84 683f 27f1 823f fe13 6e3f 7264 903f
00000010: e836 503f 928d 863f ec33 8e3f 6e7e 923f
00000020: cb44 883f 9c03 813f fa62 9d3f 85db c23f
00000030: a588 6d3f 16a4 803f 336d 6d3f c02c 733f
0.9082696 1.0229844 0.92999256 1.1280653 0.8133378 1.0511954 1.1109595 1.1444833
1.0645994 1.0079226 1.229583 1.5223242 0.9278663 1.0050075 0.9274475 0.9499016

encoder_vsn.single_variable_grns.future_covariate_1.gate_norm.add_norm.norm.bias f4 [16]
00000000: 6282 203d 8759 a2bd 8cf5 a83d 0342 80bd
00000010: 527a b53d b65c 103c 8f08 613d c487 223e
00000020: 3fd9 933c 1a1b 9a3d d43a 28bd dd72 d03c
00000030: 392c dcbd 4e6c a6bc ed6e 94bd 25d8 3d3d
0.039186843 -0.07927232 0.08249959 -0.06262591 0.088612214 0.0088111665 0.054939803 0.15872103
0.018047927 0.075247005 -0.041071728 0.025445396 -0.10750622 -0.020315316 -0.0724772 0.04634871

encoder_vsn.single_variable_grns.future_covariate_2.resample_norm.mask f4 [16]
00000000: 4d71 51be 4c02 543e d92a 46bd f069 93bd
00000010: 11a1 a63d fd89 193d 439b 1dbe df54 f43d
00000020: 6c43 ef3c 3338 c83c ce3a 7b3e 31c8 45bc
00000030: 096e 003e 9304 69bd 97f9 3abe 762c 213d
-0.20453377 0.20704001 -0.048380706 -0.0719794 0.0813619 0.03748511 -0.15391259 0.119302504
0.029206954 0.02444086 0.24534151 -0.012071655 0.12541975 -0.056889128 -0.18259273 0.039349042

encoder_vsn.single_variable_grns.future_covariate_2.resample_norm.norm.weight f4 [16]
00000000: 5782 623f fd83 9d3f 7e62 753f fa5b 6c3f
00000010: ccad 8b3f 595f 853f b99c 5b3f 7bd9 863f
00000020: 04c1 803f 21d6 833f f0dd a23f 512f 823f
00000030: 2151 913f 19c3 733f 68de 633f b67b 843f
0.8848013 1.2305905 0.9585341 0.92327845 1.0912414 1.0419723 0.85786015 1.053512
1.0058904 1.0299722 1.272398 1.017069 1.1352884 0.9521957 0.8901124 1.0350254
